node {
  name: "global_step/Initializer/zeros"
  op: "Const"
  attr {
    key: "_class"
    value {
      list {
        s: "loc:@global_step"
      }
    }
  }
  attr {
    key: "_output_shapes"
    value {
      list {
        shape {
        }
      }
    }
  }
  attr {
    key: "dtype"
    value {
      type: DT_INT64
    }
  }
  attr {
    key: "value"
    value {
      tensor {
        dtype: DT_INT64
        tensor_shape {
        }
        int64_val: 0
      }
    }
  }
}
node {
  name: "global_step"
  op: "VariableV2"
  attr {
    key: "_class"
    value {
      list {
        s: "loc:@global_step"
      }
    }
  }
  attr {
    key: "_output_shapes"
    value {
      list {
        shape {
        }
      }
    }
  }
  attr {
    key: "container"
    value {
      s: ""
    }
  }
  attr {
    key: "dtype"
    value {
      type: DT_INT64
    }
  }
  attr {
    key: "shape"
    value {
      shape {
      }
    }
  }
  attr {
    key: "shared_name"
    value {
      s: ""
    }
  }
}
node {
  name: "global_step/Assign"
  op: "Assign"
  input: "global_step"
  input: "global_step/Initializer/zeros"
  attr {
    key: "T"
    value {
      type: DT_INT64
    }
  }
  attr {
    key: "_class"
    value {
      list {
        s: "loc:@global_step"
      }
    }
  }
  attr {
    key: "_output_shapes"
    value {
      list {
        shape {
        }
      }
    }
  }
  attr {
    key: "use_locking"
    value {
      b: true
    }
  }
  attr {
    key: "validate_shape"
    value {
      b: true
    }
  }
}
node {
  name: "global_step/read"
  op: "Identity"
  input: "global_step"
  attr {
    key: "T"
    value {
      type: DT_INT64
    }
  }
  attr {
    key: "_class"
    value {
      list {
        s: "loc:@global_step"
      }
    }
  }
  attr {
    key: "_output_shapes"
    value {
      list {
        shape {
        }
      }
    }
  }
}
node {
  name: "global_step/IsVariableInitialized"
  op: "IsVariableInitialized"
  input: "global_step"
  attr {
    key: "_class"
    value {
      list {
        s: "loc:@global_step"
      }
    }
  }
  attr {
    key: "_output_shapes"
    value {
      list {
        shape {
        }
      }
    }
  }
  attr {
    key: "dtype"
    value {
      type: DT_INT64
    }
  }
}
node {
  name: "global_step/cond/Switch"
  op: "Switch"
  input: "global_step/IsVariableInitialized"
  input: "global_step/IsVariableInitialized"
  attr {
    key: "T"
    value {
      type: DT_BOOL
    }
  }
  attr {
    key: "_output_shapes"
    value {
      list {
        shape {
        }
        shape {
        }
      }
    }
  }
}
node {
  name: "global_step/cond/switch_t"
  op: "Identity"
  input: "global_step/cond/Switch:1"
  attr {
    key: "T"
    value {
      type: DT_BOOL
    }
  }
  attr {
    key: "_output_shapes"
    value {
      list {
        shape {
        }
      }
    }
  }
}
node {
  name: "global_step/cond/switch_f"
  op: "Identity"
  input: "global_step/cond/Switch"
  attr {
    key: "T"
    value {
      type: DT_BOOL
    }
  }
  attr {
    key: "_output_shapes"
    value {
      list {
        shape {
        }
      }
    }
  }
}
node {
  name: "global_step/cond/pred_id"
  op: "Identity"
  input: "global_step/IsVariableInitialized"
  attr {
    key: "T"
    value {
      type: DT_BOOL
    }
  }
  attr {
    key: "_output_shapes"
    value {
      list {
        shape {
        }
      }
    }
  }
}
node {
  name: "global_step/cond/read"
  op: "Identity"
  input: "global_step/cond/read/Switch:1"
  attr {
    key: "T"
    value {
      type: DT_INT64
    }
  }
  attr {
    key: "_output_shapes"
    value {
      list {
        shape {
        }
      }
    }
  }
}
node {
  name: "global_step/cond/read/Switch"
  op: "RefSwitch"
  input: "global_step"
  input: "global_step/cond/pred_id"
  attr {
    key: "T"
    value {
      type: DT_INT64
    }
  }
  attr {
    key: "_class"
    value {
      list {
        s: "loc:@global_step"
      }
    }
  }
  attr {
    key: "_output_shapes"
    value {
      list {
        shape {
        }
        shape {
        }
      }
    }
  }
}
node {
  name: "global_step/cond/Switch_1"
  op: "Switch"
  input: "global_step/Initializer/zeros"
  input: "global_step/cond/pred_id"
  attr {
    key: "T"
    value {
      type: DT_INT64
    }
  }
  attr {
    key: "_class"
    value {
      list {
        s: "loc:@global_step"
      }
    }
  }
  attr {
    key: "_output_shapes"
    value {
      list {
        shape {
        }
        shape {
        }
      }
    }
  }
}
node {
  name: "global_step/cond/Merge"
  op: "Merge"
  input: "global_step/cond/Switch_1"
  input: "global_step/cond/read"
  attr {
    key: "N"
    value {
      i: 2
    }
  }
  attr {
    key: "T"
    value {
      type: DT_INT64
    }
  }
  attr {
    key: "_output_shapes"
    value {
      list {
        shape {
        }
        shape {
        }
      }
    }
  }
}
node {
  name: "global_step/add/y"
  op: "Const"
  attr {
    key: "_output_shapes"
    value {
      list {
        shape {
        }
      }
    }
  }
  attr {
    key: "dtype"
    value {
      type: DT_INT64
    }
  }
  attr {
    key: "value"
    value {
      tensor {
        dtype: DT_INT64
        tensor_shape {
        }
        int64_val: 0
      }
    }
  }
}
node {
  name: "global_step/add"
  op: "Add"
  input: "global_step/cond/Merge"
  input: "global_step/add/y"
  attr {
    key: "T"
    value {
      type: DT_INT64
    }
  }
  attr {
    key: "_output_shapes"
    value {
      list {
        shape {
        }
      }
    }
  }
}
node {
  name: "tensors/component_0"
  op: "Const"
  device: "/device:CPU:0"
  attr {
    key: "_output_shapes"
    value {
      list {
        shape {
          dim {
            size: 1200
          }
        }
      }
    }
  }
  attr {
    key: "dtype"
    value {
      type: DT_INT64
    }
  }
  attr {
    key: "value"
    value {
      tensor {
        dtype: DT_INT64
        tensor_shape {
          dim {
            size: 1200
          }
        }
        tensor_content: "…"
      }
    }
  }
}
node {
  name: "tensors/component_1"
  op: "Const"
  device: "/device:CPU:0"
  attr {
    key: "_output_shapes"
    value {
      list {
        shape {
          dim {
            size: 1200
          }
        }
      }
    }
  }
  attr {
    key: "dtype"
    value {
      type: DT_STRING
    }
  }
  attr {
    key: "value"
    value {
      tensor {
        dtype: DT_STRING
        tensor_shape {
          dim {
            size: 1200
          }
        }
        string_val: "CBlock"
        string_val: "Stone"
        string_val: "PConc"
        string_val: "CBlock"
        string_val: "CBlock"
        string_val: "BrkTil"
        string_val: "PConc"
        string_val: "PConc"
        string_val: "BrkTil"
        string_val: "Slab"
        string_val: "CBlock"
        string_val: "CBlock"
        string_val: "CBlock"
        string_val: "PConc"
        string_val: "CBlock"
        string_val: "CBlock"
        string_val: "CBlock"
        string_val: "CBlock"
        string_val: "Slab"
        string_val: "CBlock"
        string_val: "PConc"
        string_val: "CBlock"
        string_val: "CBlock"
        string_val: "PConc"
        string_val: "PConc"
        string_val: "PConc"
        string_val: "PConc"
        string_val: "CBlock"
        string_val: "PConc"
        string_val: "PConc"
        string_val: "BrkTil"
        string_val: "CBlock"
        string_val: "BrkTil"
        string_val: "CBlock"
        string_val: "CBlock"
        string_val: "PConc"
        string_val: "PConc"
        string_val: "CBlock"
        string_val: "PConc"
        string_val: "BrkTil"
        string_val: "PConc"
        string_val: "CBlock"
        string_val: "CBlock"
        string_val: "Slab"
        string_val: "PConc"
        string_val: "CBlock"
        string_val: "CBlock"
        string_val: "CBlock"
        string_val: "PConc"
        string_val: "BrkTil"
        string_val: "PConc"
        string_val: "BrkTil"
        string_val: "CBlock"
        string_val: "PConc"
        string_val: "PConc"
        string_val: "PConc"
        string_val: "BrkTil"
        string_val: "PConc"
        string_val: "PConc"
        string_val: "PConc"
        string_val: "CBlock"
        string_val: "BrkTil"
        string_val: "CBlock"
        string_val: "PConc"
        string_val: "CBlock"
        string_val: "PConc"
        string_val: "BrkTil"
        string_val: "BrkTil"
        string_val: "PConc"
        string_val: "CBlock"
        string_val: "CBlock"
        string_val: "PConc"
        string_val: "PConc"
        string_val: "PConc"
        string_val: "PConc"
        string_val: "CBlock"
        string_val: "CBlock"
        string_val: "CBlock"
        string_val: "CBlock"
        string_val: "CBlock"
        string_val: "CBlock"
        string_val: "PConc"
        string_val: "CBlock"
        string_val: "PConc"
        string_val: "PConc"
        string_val: "PConc"
        string_val: "PConc"
        string_val: "PConc"
        string_val: "PConc"
        string_val: "CBlock"
        string_val: "BrkTil"
        string_val: "CBlock"
        string_val: "PConc"
        string_val: "Stone"
        string_val: "PConc"
        string_val: "PConc"
        string_val: "PConc"
        string_val: "CBlock"
        string_val: "CBlock"
        string_val: "CBlock"
        string_val: "CBlock"
        string_val: "CBlock"
        string_val: "CBlock"
        string_val: "PConc"
        string_val: "CBlock"
        string_val: "PConc"
        string_val: "PConc"
        string_val: "PConc"
        string_val: "PConc"
        string_val: "CBlock"
        string_val: "CBlock"
        string_val: "PConc"
        string_val: "CBlock"
        string_val: "PConc"
        string_val: "BrkTil"
        string_val: "PConc"
        string_val: "PConc"
        string_val: "CBlock"
        string_val: "CBlock"
        string_val: "CBlock"
        string_val: "PConc"
        string_val: "CBlock"
        string_val: "PConc"
        string_val: "CBlock"
        string_val: "BrkTil"
        string_val: "CBlock"
        string_val: "CBlock"
        string_val: "CBlock"
        string_val: "CBlock"
        string_val: "CBlock"
        string_val: "PConc"
        string_val: "CBlock"
        string_val: "PConc"
        string_val: "BrkTil"
        string_val: "PConc"
        string_val: "CBlock"
        string_val: "PConc"
        string_val: "CBlock"
        string_val: "BrkTil"
        string_val: "CBlock"
        string_val: "CBlock"
        string_val: "BrkTil"
        string_val: "CBlock"
        string_val: "CBlock"
        string_val: "CBlock"
        string_val: "CBlock"
        string_val: "PConc"
        string_val: "CBlock"
        string_val: "PConc"
        string_val: "PConc"
        string_val: "BrkTil"
        string_val: "CBlock"
        string_val: "CBlock"
        string_val: "BrkTil"
        string_val: "BrkTil"
        string_val: "CBlock"
        string_val: "PConc"
        string_val: "BrkTil"
        string_val: "PConc"
        string_val: "CBlock"
        string_val: "PConc"
        string_val: "BrkTil"
        string_val: "PConc"
        string_val: "PConc"
        string_val: "CBlock"
        string_val: "PConc"
        string_val: "PConc"
        string_val: "CBlock"
        string_val: "Slab"
        string_val: "CBlock"
        string_val: "PConc"
        string_val: "PConc"
        string_val: "PConc"
        string_val: "CBlock"
        string_val: "BrkTil"
        string_val: "PConc"
        string_val: "PConc"
        string_val: "CBlock"
        string_val: "CBlock"
        string_val: "CBlock"
        string_val: "PConc"
        string_val: "BrkTil"
        string_val: "PConc"
        string_val: "CBlock"
        string_val: "PConc"
        string_val: "PConc"
        string_val: "PConc"
        string_val: "CBlock"
        string_val: "CBlock"
        string_val: "PConc"
        string_val: "CBlock"
        string_val: "CBlock"
        string_val: "CBlock"
        string_val: "CBlock"
        string_val: "PConc"
        string_val: "PConc"
        string_val: "CBlock"
        string_val: "PConc"
        string_val: "BrkTil"
        string_val: "PConc"
        string_val: "CBlock"
        string_val: "PConc"
        string_val: "CBlock"
        string_val: "PConc"
        string_val: "Slab"
        string_val: "CBlock"
        string_val: "CBlock"
        string_val: "PConc"
        string_val: "CBlock"
        string_val: "CBlock"
        string_val: "PConc"
        string_val: "CBlock"
        string_val: "CBlock"
        string_val: "CBlock"
        string_val: "PConc"
        string_val: "PConc"
        string_val: "CBlock"
        string_val: "CBlock"
        string_val: "PConc"
        string_val: "PConc"
        string_val: "PConc"
        string_val: "PConc"
        string_val: "CBlock"
        string_val: "BrkTil"
        string_val: "PConc"
        string_val: "CBlock"
        string_val: "CBlock"
        string_val: "BrkTil"
        string_val: "PConc"
        string_val: "PConc"
        string_val: "CBlock"
        string_val: "CBlock"
        string_val: "CBlock"
        string_val: "BrkTil"
        string_val: "CBlock"
        string_val: "PConc"
        string_val: "CBlock"
        string_val: "PConc"
        string_val: "CBlock"
        string_val: "CBlock"
        string_val: "CBlock"
        string_val: "CBlock"
        string_val: "PConc"
        string_val: "PConc"
        string_val: "CBlock"
        string_val: "PConc"
        string_val: "PConc"
        string_val: "PConc"
        string_val: "CBlock"
        string_val: "CBlock"
        string_val: "PConc"
        string_val: "CBlock"
        string_val: "CBlock"
        string_val: "CBlock"
        string_val: "CBlock"
        string_val: "PConc"
        string_val: "CBlock"
        string_val: "CBlock"
        string_val: "PConc"
        string_val: "CBlock"
        string_val: "PConc"
        string_val: "CBlock"
        string_val: "CBlock"
        string_val: "CBlock"
        string_val: "CBlock"
        string_val: "CBlock"
        string_val: "PConc"
        string_val: "PConc"
        string_val: "PConc"
        string_val: "CBlock"
        string_val: "BrkTil"
        string_val: "PConc"
        string_val: "CBlock"
        string_val: "PConc"
        string_val: "PConc"
        string_val: "CBlock"
        string_val: "CBlock"
        string_val: "PConc"
        string_val: "CBlock"
        string_val: "PConc"
        string_val: "PConc"
        string_val: "CBlock"
        string_val: "CBlock"
        string_val: "PConc"
        string_val: "PConc"
        string_val: "CBlock"
        string_val: "PConc"
        string_val: "PConc"
        string_val: "BrkTil"
        string_val: "PConc"
        string_val: "CBlock"
        string_val: "PConc"
        string_val: "CBlock"
        string_val: "CBlock"
        string_val: "PConc"
        string_val: "CBlock"
        string_val: "PConc"
        string_val: "CBlock"
        string_val: "PConc"
        string_val: "CBlock"
        string_val: "CBlock"
        string_val: "CBlock"
        string_val: "CBlock"
        string_val: "PConc"
        string_val: "CBlock"
        string_val: "PConc"
        string_val: "PConc"
        string_val: "CBlock"
        string_val: "CBlock"
        string_val: "PConc"
        string_val: "PConc"
        string_val: "PConc"
        string_val: "PConc"
        string_val: "CBlock"
        string_val: "PConc"
        string_val: "PConc"
        string_val: "BrkTil"
        string_val: "Slab"
        string_val: "PConc"
        string_val: "PConc"
        string_val: "CBlock"
        string_val: "PConc"
        string_val: "CBlock"
        string_val: "PConc"
        string_val: "PConc"
        string_val: "Slab"
        string_val: "PConc"
        string_val: "CBlock"
        string_val: "PConc"
        string_val: "PConc"
        string_val: "PConc"
        string_val: "PConc"
        string_val: "CBlock"
        string_val: "CBlock"
        string_val: "PConc"
        string_val: "CBlock"
        string_val: "BrkTil"
        string_val: "CBlock"
        string_val: "Wood"
        string_val: "BrkTil"
        string_val: "PConc"
        string_val: "BrkTil"
        string_val: "CBlock"
        string_val: "CBlock"
        string_val: "PConc"
        string_val: "PConc"
        string_val: "CBlock"
        string_val: "PConc"
        string_val: "CBlock"
        string_val: "PConc"
        string_val: "PConc"
        string_val: "CBlock"
        string_val: "PConc"
        string_val: "PConc"
        string_val: "PConc"
        string_val: "BrkTil"
        string_val: "CBlock"
        string_val: "CBlock"
        string_val: "PConc"
        string_val: "PConc"
        string_val: "Wood"
        string_val: "CBlock"
        string_val: "PConc"
        string_val: "PConc"
        string_val: "PConc"
        string_val: "PConc"
        string_val: "CBlock"
        string_val: "BrkTil"
        string_val: "PConc"
        string_val: "BrkTil"
        string_val: "PConc"
        string_val: "BrkTil"
        string_val: "BrkTil"
        string_val: "PConc"
        string_val: "PConc"
        string_val: "CBlock"
        string_val: "Stone"
        string_val: "CBlock"
        string_val: "CBlock"
        string_val: "BrkTil"
        string_val: "BrkTil"
        string_val: "CBlock"
        string_val: "PConc"
        string_val: "PConc"
        string_val: "CBlock"
        string_val: "BrkTil"
        string_val: "PConc"
        string_val: "PConc"
        string_val: "CBlock"
        string_val: "BrkTil"
        string_val: "PConc"
        string_val: "PConc"
        string_val: "PConc"
        string_val: "CBlock"
        string_val: "PConc"
        string_val: "CBlock"
        string_val: "PConc"
        string_val: "PConc"
        string_val: "PConc"
        string_val: "CBlock"
        string_val: "PConc"
        string_val: "CBlock"
        string_val: "BrkTil"
        string_val: "PConc"
        string_val: "PConc"
        string_val: "PConc"
        string_val: "CBlock"
        string_val: "CBlock"
        string_val: "PConc"
        string_val: "PConc"
        string_val: "CBlock"
        string_val: "CBlock"
        string_val: "CBlock"
        string_val: "PConc"
        string_val: "PConc"
        string_val: "PConc"
        string_val: "CBlock"
        string_val: "PConc"
        string_val: "PConc"
        string_val: "CBlock"
        string_val: "CBlock"
        string_val: "CBlock"
        string_val: "CBlock"
        string_val: "PConc"
        string_val: "PConc"
        string_val: "PConc"
        string_val: "CBlock"
        string_val: "CBlock"
        string_val: "PConc"
        string_val: "PConc"
        string_val: "PConc"
        string_val: "CBlock"
        string_val: "BrkTil"
        string_val: "PConc"
        string_val: "PConc"
        string_val: "PConc"
        string_val: "PConc"
        string_val: "PConc"
        string_val: "BrkTil"
        string_val: "PConc"
        string_val: "PConc"
        string_val: "CBlock"
        string_val: "CBlock"
        string_val: "CBlock"
        string_val: "CBlock"
        string_val: "CBlock"
        string_val: "PConc"
        string_val: "CBlock"
        string_val: "CBlock"
        string_val: "PConc"
        string_val: "CBlock"
        string_val: "CBlock"
        string_val: "CBlock"
        string_val: "CBlock"
        string_val: "PConc"
        string_val: "CBlock"
        string_val: "PConc"
        string_val: "PConc"
        string_val: "PConc"
        string_val: "CBlock"
        string_val: "CBlock"
        string_val: "CBlock"
        string_val: "CBlock"
        string_val: "CBlock"
        string_val: "PConc"
        string_val: "PConc"
        string_val: "PConc"
        string_val: "PConc"
        string_val: "CBlock"
        string_val: "CBlock"
        string_val: "CBlock"
        string_val: "CBlock"
        string_val: "PConc"
        string_val: "PConc"
        string_val: "CBlock"
        string_val: "BrkTil"
        string_val: "CBlock"
        string_val: "PConc"
        string_val: "BrkTil"
        string_val: "PConc"
        string_val: "PConc"
        string_val: "PConc"
        string_val: "PConc"
        string_val: "PConc"
        string_val: "CBlock"
        string_val: "BrkTil"
        string_val: "CBlock"
        string_val: "PConc"
        string_val: "CBlock"
        string_val: "CBlock"
        string_val: "PConc"
        string_val: "CBlock"
        string_val: "PConc"
        string_val: "CBlock"
        string_val: "PConc"
        string_val: "PConc"
        string_val: "CBlock"
        string_val: "CBlock"
        string_val: "CBlock"
        string_val: "CBlock"
        string_val: "PConc"
        string_val: "PConc"
        string_val: "PConc"
        string_val: "PConc"
        string_val: "PConc"
        string_val: "PConc"
        string_val: "CBlock"
        string_val: "CBlock"
        string_val: "CBlock"
        string_val: "CBlock"
        string_val: "PConc"
        string_val: "CBlock"
        string_val: "PConc"
        string_val: "CBlock"
        string_val: "PConc"
        string_val: "CBlock"
        string_val: "CBlock"
        string_val: "PConc"
        string_val: "CBlock"
        string_val: "PConc"
        string_val: "CBlock"
        string_val: "CBlock"
        string_val: "CBlock"
        string_val: "CBlock"
        string_val: "PConc"
        string_val: "PConc"
        string_val: "PConc"
        string_val: "PConc"
        string_val: "Slab"
        string_val: "PConc"
        string_val: "BrkTil"
        string_val: "PConc"
        string_val: "PConc"
        string_val: "PConc"
        string_val: "CBlock"
        string_val: "CBlock"
        string_val: "PConc"
        string_val: "CBlock"
        string_val: "BrkTil"
        string_val: "CBlock"
        string_val: "PConc"
        string_val: "PConc"
        string_val: "CBlock"
        string_val: "PConc"
        string_val: "BrkTil"
        string_val: "CBlock"
        string_val: "PConc"
        string_val: "CBlock"
        string_val: "CBlock"
        string_val: "PConc"
        string_val: "CBlock"
        string_val: "PConc"
        string_val: "Slab"
        string_val: "PConc"
        string_val: "PConc"
        string_val: "PConc"
        string_val: "BrkTil"
        string_val: "CBlock"
        string_val: "BrkTil"
        string_val: "CBlock"
        string_val: "PConc"
        string_val: "PConc"
        string_val: "CBlock"
        string_val: "PConc"
        string_val: "PConc"
        string_val: "CBlock"
        string_val: "PConc"
        string_val: "CBlock"
        string_val: "PConc"
        string_val: "CBlock"
        string_val: "CBlock"
        string_val: "PConc"
        string_val: "PConc"
        string_val: "PConc"
        string_val: "PConc"
        string_val: "CBlock"
        string_val: "BrkTil"
        string_val: "PConc"
        string_val: "PConc"
        string_val: "PConc"
        string_val: "CBlock"
        string_val: "PConc"
        string_val: "PConc"
        string_val: "CBlock"
        string_val: "CBlock"
        string_val: "CBlock"
        string_val: "PConc"
        string_val: "CBlock"
        string_val: "PConc"
        string_val: "CBlock"
        string_val: "PConc"
        string_val: "CBlock"
        string_val: "CBlock"
        string_val: "CBlock"
        string_val: "PConc"
        string_val: "CBlock"
        string_val: "PConc"
        string_val: "PConc"
        string_val: "PConc"
        string_val: "CBlock"
        string_val: "PConc"
        string_val: "CBlock"
        string_val: "PConc"
        string_val: "PConc"
        string_val: "BrkTil"
        string_val: "PConc"
        string_val: "CBlock"
        string_val: "PConc"
        string_val: "CBlock"
        string_val: "PConc"
        string_val: "PConc"
        string_val: "CBlock"
        string_val: "BrkTil"
        string_val: "CBlock"
        string_val: "PConc"
        string_val: "PConc"
        string_val: "CBlock"
        string_val: "BrkTil"
        string_val: "PConc"
        string_val: "CBlock"
        string_val: "PConc"
        string_val: "BrkTil"
        string_val: "CBlock"
        string_val: "CBlock"
        string_val: "Slab"
        string_val: "PConc"
        string_val: "CBlock"
        string_val: "CBlock"
        string_val: "PConc"
        string_val: "CBlock"
        string_val: "PConc"
        string_val: "PConc"
        string_val: "BrkTil"
        string_val: "PConc"
        string_val: "Slab"
        string_val: "PConc"
        string_val: "CBlock"
        string_val: "PConc"
        string_val: "PConc"
        string_val: "CBlock"
        string_val: "BrkTil"
        string_val: "BrkTil"
        string_val: "PConc"
        string_val: "CBlock"
        string_val: "CBlock"
        string_val: "CBlock"
        string_val: "Slab"
        string_val: "PConc"
        string_val: "PConc"
        string_val: "BrkTil"
        string_val: "PConc"
        string_val: "BrkTil"
        string_val: "PConc"
        string_val: "BrkTil"
        string_val: "CBlock"
        string_val: "PConc"
        string_val: "CBlock"
        string_val: "CBlock"
        string_val: "CBlock"
        string_val: "PConc"
        string_val: "CBlock"
        string_val: "PConc"
        string_val: "PConc"
        string_val: "PConc"
        string_val: "PConc"
        string_val: "PConc"
        string_val: "CBlock"
        string_val: "Slab"
        string_val: "PConc"
        string_val: "CBlock"
        string_val: "CBlock"
        string_val: "PConc"
        string_val: "BrkTil"
        string_val: "CBlock"
        string_val: "PConc"
        string_val: "PConc"
        string_val: "CBlock"
        string_val: "CBlock"
        string_val: "CBlock"
        string_val: "PConc"
        string_val: "PConc"
        string_val: "CBlock"
        string_val: "PConc"
        string_val: "BrkTil"
        string_val: "CBlock"
        string_val: "CBlock"
        string_val: "PConc"
        string_val: "CBlock"
        string_val: "PConc"
        string_val: "PConc"
        string_val: "PConc"
        string_val: "PConc"
        string_val: "CBlock"
        string_val: "CBlock"
        string_val: "CBlock"
        string_val: "CBlock"
        string_val: "CBlock"
        string_val: "BrkTil"
        string_val: "PConc"
        string_val: "CBlock"
        string_val: "CBlock"
        string_val: "CBlock"
        string_val: "PConc"
        string_val: "BrkTil"
        string_val: "CBlock"
        string_val: "PConc"
        string_val: "CBlock"
        string_val: "PConc"
        string_val: "CBlock"
        string_val: "CBlock"
        string_val: "CBlock"
        string_val: "BrkTil"
        string_val: "CBlock"
        string_val: "PConc"
        string_val: "PConc"
        string_val: "BrkTil"
        string_val: "PConc"
        string_val: "PConc"
        string_val: "CBlock"
        string_val: "PConc"
        string_val: "PConc"
        string_val: "PConc"
        string_val: "PConc"
        string_val: "PConc"
        string_val: "PConc"
        string_val: "PConc"
        string_val: "PConc"
        string_val: "CBlock"
        string_val: "PConc"
        string_val: "CBlock"
        string_val: "CBlock"
        string_val: "PConc"
        string_val: "PConc"
        string_val: "CBlock"
        string_val: "PConc"
        string_val: "CBlock"
        string_val: "CBlock"
        string_val: "CBlock"
        string_val: "PConc"
        string_val: "CBlock"
        string_val: "CBlock"
        string_val: "PConc"
        string_val: "PConc"
        string_val: "PConc"
        string_val: "PConc"
        string_val: "CBlock"
        string_val: "CBlock"
        string_val: "PConc"
        string_val: "PConc"
        string_val: "CBlock"
        string_val: "PConc"
        string_val: "CBlock"
        string_val: "PConc"
        string_val: "CBlock"
        string_val: "CBlock"
        string_val: "CBlock"
        string_val: "PConc"
        string_val: "PConc"
        string_val: "PConc"
        string_val: "CBlock"
        string_val: "PConc"
        string_val: "PConc"
        string_val: "CBlock"
        string_val: "PConc"
        string_val: "CBlock"
        string_val: "PConc"
        string_val: "CBlock"
        string_val: "PConc"
        string_val: "PConc"
        string_val: "PConc"
        string_val: "PConc"
        string_val: "PConc"
        string_val: "PConc"
        string_val: "PConc"
        string_val: "CBlock"
        string_val: "PConc"
        string_val: "PConc"
        string_val: "CBlock"
        string_val: "BrkTil"
        string_val: "PConc"
        string_val: "CBlock"
        string_val: "CBlock"
        string_val: "CBlock"
        string_val: "PConc"
        string_val: "CBlock"
        string_val: "PConc"
        string_val: "CBlock"
        string_val: "CBlock"
        string_val: "CBlock"
        string_val: "BrkTil"
        string_val: "BrkTil"
        string_val: "CBlock"
        string_val: "PConc"
        string_val: "PConc"
        string_val: "BrkTil"
        string_val: "BrkTil"
        string_val: "PConc"
        string_val: "CBlock"
        string_val: "CBlock"
        string_val: "CBlock"
        string_val: "Slab"
        string_val: "CBlock"
        string_val: "CBlock"
        string_val: "CBlock"
        string_val: "PConc"
        string_val: "CBlock"
        string_val: "BrkTil"
        string_val: "PConc"
        string_val: "PConc"
        string_val: "PConc"
        string_val: "PConc"
        string_val: "BrkTil"
        string_val: "CBlock"
        string_val: "CBlock"
        string_val: "PConc"
        string_val: "CBlock"
        string_val: "PConc"
        string_val: "BrkTil"
        string_val: "PConc"
        string_val: "CBlock"
        string_val: "CBlock"
        string_val: "CBlock"
        string_val: "PConc"
        string_val: "CBlock"
        string_val: "PConc"
        string_val: "PConc"
        string_val: "CBlock"
        string_val: "PConc"
        string_val: "CBlock"
        string_val: "PConc"
        string_val: "CBlock"
        string_val: "PConc"
        string_val: "CBlock"
        string_val: "PConc"
        string_val: "PConc"
        string_val: "CBlock"
        string_val: "PConc"
        string_val: "BrkTil"
        string_val: "PConc"
        string_val: "CBlock"
        string_val: "PConc"
        string_val: "CBlock"
        string_val: "CBlock"
        string_val: "PConc"
        string_val: "CBlock"
        string_val: "PConc"
        string_val: "CBlock"
        string_val: "PConc"
        string_val: "CBlock"
        string_val: "CBlock"
        string_val: "PConc"
        string_val: "PConc"
        string_val: "Slab"
        string_val: "PConc"
        string_val: "BrkTil"
        string_val: "Slab"
        string_val: "CBlock"
        string_val: "CBlock"
        string_val: "PConc"
        string_val: "PConc"
        string_val: "BrkTil"
        string_val: "PConc"
        string_val: "CBlock"
        string_val: "PConc"
        string_val: "PConc"
        string_val: "PConc"
        string_val: "CBlock"
        string_val: "CBlock"
        string_val: "CBlock"
        string_val: "CBlock"
        string_val: "PConc"
        string_val: "CBlock"
        string_val: "PConc"
        string_val: "PConc"
        string_val: "CBlock"
        string_val: "CBlock"
        string_val: "PConc"
        string_val: "PConc"
        string_val: "CBlock"
        string_val: "CBlock"
        string_val: "PConc"
        string_val: "CBlock"
        string_val: "PConc"
        string_val: "CBlock"
        string_val: "PConc"
        string_val: "CBlock"
        string_val: "PConc"
        string_val: "CBlock"
        string_val: "PConc"
        string_val: "PConc"
        string_val: "PConc"
        string_val: "CBlock"
        string_val: "CBlock"
        string_val: "PConc"
        string_val: "Slab"
        string_val: "PConc"
        string_val: "PConc"
        string_val: "CBlock"
        string_val: "PConc"
        string_val: "PConc"
        string_val: "CBlock"
        string_val: "CBlock"
        string_val: "CBlock"
        string_val: "PConc"
        string_val: "PConc"
        string_val: "BrkTil"
        string_val: "PConc"
        string_val: "CBlock"
        string_val: "CBlock"
        string_val: "Stone"
        string_val: "CBlock"
        string_val: "PConc"
        string_val: "CBlock"
        string_val: "CBlock"
        string_val: "PConc"
        string_val: "CBlock"
        string_val: "CBlock"
        string_val: "CBlock"
        string_val: "PConc"
        string_val: "BrkTil"
        string_val: "PConc"
        string_val: "CBlock"
        string_val: "Slab"
        string_val: "CBlock"
        string_val: "CBlock"
        string_val: "PConc"
        string_val: "CBlock"
        string_val: "CBlock"
        string_val: "CBlock"
        string_val: "CBlock"
        string_val: "BrkTil"
        string_val: "PConc"
        string_val: "PConc"
        string_val: "CBlock"
        string_val: "CBlock"
        string_val: "CBlock"
        string_val: "PConc"
        string_val: "PConc"
        string_val: "CBlock"
        string_val: "PConc"
        string_val: "CBlock"
        string_val: "CBlock"
        string_val: "PConc"
        string_val: "PConc"
        string_val: "CBlock"
        string_val: "CBlock"
        string_val: "CBlock"
        string_val: "PConc"
        string_val: "PConc"
        string_val: "PConc"
        string_val: "CBlock"
        string_val: "CBlock"
        string_val: "CBlock"
        string_val: "BrkTil"
        string_val: "PConc"
        string_val: "PConc"
        string_val: "CBlock"
        string_val: "BrkTil"
        string_val: "CBlock"
        string_val: "PConc"
        string_val: "CBlock"
        string_val: "PConc"
        string_val: "PConc"
        string_val: "PConc"
        string_val: "CBlock"
        string_val: "PConc"
        string_val: "CBlock"
        string_val: "PConc"
        string_val: "PConc"
        string_val: "PConc"
        string_val: "CBlock"
        string_val: "CBlock"
        string_val: "BrkTil"
        string_val: "PConc"
        string_val: "CBlock"
        string_val: "CBlock"
        string_val: "PConc"
        string_val: "PConc"
        string_val: "CBlock"
        string_val: "PConc"
        string_val: "Wood"
        string_val: "PConc"
        string_val: "CBlock"
        string_val: "PConc"
        string_val: "PConc"
        string_val: "BrkTil"
        string_val: "BrkTil"
        string_val: "CBlock"
        string_val: "CBlock"
        string_val: "CBlock"
        string_val: "PConc"
        string_val: "CBlock"
        string_val: "PConc"
        string_val: "PConc"
        string_val: "BrkTil"
        string_val: "PConc"
        string_val: "BrkTil"
        string_val: "CBlock"
        string_val: "PConc"
        string_val: "PConc"
        string_val: "CBlock"
        string_val: "CBlock"
        string_val: "CBlock"
        string_val: "PConc"
        string_val: "PConc"
        string_val: "CBlock"
        string_val: "CBlock"
        string_val: "CBlock"
        string_val: "CBlock"
        string_val: "BrkTil"
        string_val: "PConc"
        string_val: "BrkTil"
        string_val: "PConc"
        string_val: "CBlock"
        string_val: "CBlock"
        string_val: "CBlock"
        string_val: "PConc"
        string_val: "CBlock"
        string_val: "Slab"
        string_val: "CBlock"
        string_val: "PConc"
        string_val: "PConc"
        string_val: "CBlock"
        string_val: "PConc"
        string_val: "BrkTil"
        string_val: "PConc"
        string_val: "PConc"
        string_val: "CBlock"
        string_val: "CBlock"
        string_val: "PConc"
        string_val: "CBlock"
        string_val: "PConc"
        string_val: "PConc"
        string_val: "PConc"
        string_val: "BrkTil"
        string_val: "PConc"
        string_val: "BrkTil"
        string_val: "PConc"
        string_val: "CBlock"
        string_val: "CBlock"
        string_val: "CBlock"
        string_val: "BrkTil"
        string_val: "CBlock"
        string_val: "PConc"
        string_val: "CBlock"
        string_val: "PConc"
        string_val: "PConc"
        string_val: "PConc"
        string_val: "PConc"
        string_val: "PConc"
        string_val: "CBlock"
        string_val: "CBlock"
        string_val: "CBlock"
        string_val: "PConc"
        string_val: "BrkTil"
        string_val: "PConc"
        string_val: "PConc"
        string_val: "Slab"
        string_val: "PConc"
        string_val: "BrkTil"
        string_val: "CBlock"
        string_val: "CBlock"
        string_val: "CBlock"
        string_val: "BrkTil"
        string_val: "CBlock"
        string_val: "PConc"
        string_val: "CBlock"
        string_val: "CBlock"
        string_val: "CBlock"
        string_val: "CBlock"
        string_val: "CBlock"
        string_val: "PConc"
        string_val: "PConc"
        string_val: "BrkTil"
        string_val: "BrkTil"
        string_val: "PConc"
        string_val: "PConc"
        string_val: "CBlock"
        string_val: "CBlock"
        string_val: "CBlock"
        string_val: "CBlock"
        string_val: "PConc"
        string_val: "CBlock"
        string_val: "PConc"
        string_val: "CBlock"
        string_val: "CBlock"
        string_val: "BrkTil"
        string_val: "CBlock"
        string_val: "PConc"
        string_val: "CBlock"
        string_val: "PConc"
        string_val: "PConc"
        string_val: "CBlock"
        string_val: "CBlock"
        string_val: "CBlock"
        string_val: "BrkTil"
        string_val: "CBlock"
        string_val: "PConc"
        string_val: "PConc"
        string_val: "CBlock"
        string_val: "PConc"
        string_val: "CBlock"
        string_val: "CBlock"
        string_val: "Slab"
        string_val: "PConc"
        string_val: "PConc"
        string_val: "CBlock"
        string_val: "PConc"
        string_val: "CBlock"
        string_val: "CBlock"
        string_val: "PConc"
        string_val: "CBlock"
        string_val: "CBlock"
        string_val: "CBlock"
        string_val: "BrkTil"
        string_val: "Slab"
        string_val: "PConc"
        string_val: "CBlock"
        string_val: "CBlock"
        string_val: "BrkTil"
        string_val: "CBlock"
        string_val: "PConc"
        string_val: "PConc"
        string_val: "CBlock"
        string_val: "CBlock"
        string_val: "PConc"
        string_val: "PConc"
        string_val: "BrkTil"
        string_val: "PConc"
        string_val: "PConc"
        string_val: "PConc"
        string_val: "PConc"
        string_val: "CBlock"
        string_val: "BrkTil"
        string_val: "CBlock"
        string_val: "CBlock"
        string_val: "PConc"
        string_val: "PConc"
        string_val: "CBlock"
        string_val: "PConc"
        string_val: "BrkTil"
        string_val: "Stone"
        string_val: "CBlock"
        string_val: "PConc"
        string_val: "CBlock"
        string_val: "PConc"
        string_val: "PConc"
        string_val: "CBlock"
        string_val: "CBlock"
        string_val: "PConc"
        string_val: "CBlock"
        string_val: "PConc"
        string_val: "PConc"
        string_val: "CBlock"
        string_val: "PConc"
        string_val: "CBlock"
        string_val: "PConc"
        string_val: "CBlock"
        string_val: "BrkTil"
        string_val: "PConc"
        string_val: "PConc"
        string_val: "CBlock"
        string_val: "Slab"
        string_val: "PConc"
        string_val: "PConc"
        string_val: "CBlock"
        string_val: "PConc"
        string_val: "CBlock"
        string_val: "PConc"
        string_val: "CBlock"
        string_val: "CBlock"
        string_val: "CBlock"
        string_val: "BrkTil"
        string_val: "CBlock"
        string_val: "PConc"
        string_val: "CBlock"
        string_val: "PConc"
        string_val: "BrkTil"
        string_val: "PConc"
        string_val: "PConc"
        string_val: "CBlock"
        string_val: "BrkTil"
        string_val: "PConc"
        string_val: "PConc"
        string_val: "CBlock"
        string_val: "PConc"
        string_val: "BrkTil"
        string_val: "CBlock"
        string_val: "CBlock"
        string_val: "CBlock"
        string_val: "PConc"
        string_val: "PConc"
        string_val: "PConc"
        string_val: "PConc"
        string_val: "PConc"
        string_val: "PConc"
        string_val: "PConc"
        string_val: "PConc"
        string_val: "BrkTil"
        string_val: "CBlock"
      }
    }
  }
}
node {
  name: "tensors/component_2"
  op: "Const"
  device: "/device:CPU:0"
  attr {
    key: "_output_shapes"
    value {
      list {
        shape {
          dim {
            size: 1200
          }
        }
      }
    }
  }
  attr {
    key: "dtype"
    value {
      type: DT_STRING
    }
  }
  attr {
    key: "value"
    value {
      tensor {
        dtype: DT_STRING
        tensor_shape {
          dim {
            size: 1200
          }
        }
        string_val: "Inside"
        string_val: "Corner"
        string_val: "Corner"
        string_val: "Inside"
        string_val: "Corner"
        string_val: "Inside"
        string_val: "Inside"
        string_val: "Inside"
        string_val: "Inside"
        string_val: "Inside"
        string_val: "Inside"
        string_val: "Inside"
        string_val: "Inside"
        string_val: "Corner"
        string_val: "Inside"
        string_val: "CulDSac"
        string_val: "Corner"
        string_val: "Inside"
        string_val: "Inside"
        string_val: "Inside"
        string_val: "Inside"
        string_val: "Inside"
        string_val: "CulDSac"
        string_val: "Inside"
        string_val: "CulDSac"
        string_val: "Inside"
        string_val: "Inside"
        string_val: "Inside"
        string_val: "Inside"
        string_val: "Corner"
        string_val: "Inside"
        string_val: "Inside"
        string_val: "Inside"
        string_val: "Corner"
        string_val: "Inside"
        string_val: "Inside"
        string_val: "CulDSac"
        string_val: "Inside"
        string_val: "Corner"
        string_val: "Inside"
        string_val: "Inside"
        string_val: "Inside"
        string_val: "Inside"
        string_val: "Corner"
        string_val: "CulDSac"
        string_val: "Inside"
        string_val: "Inside"
        string_val: "Inside"
        string_val: "Inside"
        string_val: "Inside"
        string_val: "Inside"
        string_val: "Inside"
        string_val: "Inside"
        string_val: "Corner"
        string_val: "Inside"
        string_val: "Inside"
        string_val: "Corner"
        string_val: "Inside"
        string_val: "Corner"
        string_val: "FR2"
        string_val: "Inside"
        string_val: "Corner"
        string_val: "Inside"
        string_val: "Corner"
        string_val: "Inside"
        string_val: "Inside"
        string_val: "Inside"
        string_val: "Inside"
        string_val: "Inside"
        string_val: "FR2"
        string_val: "Corner"
        string_val: "Inside"
        string_val: "Inside"
        string_val: "Inside"
        string_val: "Inside"
        string_val: "Corner"
        string_val: "Inside"
        string_val: "Inside"
        string_val: "Inside"
        string_val: "Inside"
        string_val: "CulDSac"
        string_val: "Inside"
        string_val: "Inside"
        string_val: "Inside"
        string_val: "Inside"
        string_val: "Inside"
        string_val: "Corner"
        string_val: "Inside"
        string_val: "Inside"
        string_val: "Inside"
        string_val: "Inside"
        string_val: "CulDSac"
        string_val: "Inside"
        string_val: "Inside"
        string_val: "Corner"
        string_val: "Corner"
        string_val: "FR2"
        string_val: "Inside"
        string_val: "Inside"
        string_val: "Corner"
        string_val: "Inside"
        string_val: "Inside"
        string_val: "Corner"
        string_val: "Inside"
        string_val: "Inside"
        string_val: "Corner"
        string_val: "Corner"
        string_val: "FR2"
        string_val: "Inside"
        string_val: "Corner"
        string_val: "Corner"
        string_val: "CulDSac"
        string_val: "Inside"
        string_val: "Inside"
        string_val: "Corner"
        string_val: "Inside"
        string_val: "Inside"
        string_val: "Inside"
        string_val: "Inside"
        string_val: "Corner"
        string_val: "Inside"
        string_val: "Inside"
        string_val: "FR2"
        string_val: "Inside"
        string_val: "Inside"
        string_val: "Corner"
        string_val: "Inside"
        string_val: "CulDSac"
        string_val: "Inside"
        string_val: "Corner"
        string_val: "Inside"
        string_val: "Inside"
        string_val: "Corner"
        string_val: "Inside"
        string_val: "Inside"
        string_val: "Corner"
        string_val: "Inside"
        string_val: "Inside"
        string_val: "Corner"
        string_val: "Inside"
        string_val: "Inside"
        string_val: "Inside"
        string_val: "Inside"
        string_val: "Inside"
        string_val: "Inside"
        string_val: "Corner"
        string_val: "Inside"
        string_val: "Inside"
        string_val: "Inside"
        string_val: "Inside"
        string_val: "Inside"
        string_val: "CulDSac"
        string_val: "Corner"
        string_val: "Inside"
        string_val: "Inside"
        string_val: "Inside"
        string_val: "CulDSac"
        string_val: "Inside"
        string_val: "Inside"
        string_val: "Inside"
        string_val: "Inside"
        string_val: "Inside"
        string_val: "Inside"
        string_val: "Corner"
        string_val: "Inside"
        string_val: "CulDSac"
        string_val: "Inside"
        string_val: "Corner"
        string_val: "CulDSac"
        string_val: "Inside"
        string_val: "Inside"
        string_val: "Inside"
        string_val: "Inside"
        string_val: "CulDSac"
        string_val: "Inside"
        string_val: "Corner"
        string_val: "Corner"
        string_val: "Inside"
        string_val: "Inside"
        string_val: "CulDSac"
        string_val: "Inside"
        string_val: "Inside"
        string_val: "Inside"
        string_val: "Inside"
        string_val: "Inside"
        string_val: "Inside"
        string_val: "Inside"
        string_val: "Inside"
        string_val: "Inside"
        string_val: "Inside"
        string_val: "Inside"
        string_val: "Inside"
        string_val: "FR2"
        string_val: "Inside"
        string_val: "Corner"
        string_val: "Inside"
        string_val: "Inside"
        string_val: "Inside"
        string_val: "Inside"
        string_val: "Inside"
        string_val: "Inside"
        string_val: "Corner"
        string_val: "Inside"
        string_val: "Inside"
        string_val: "Inside"
        string_val: "Inside"
        string_val: "Corner"
        string_val: "Inside"
        string_val: "Inside"
        string_val: "Inside"
        string_val: "Inside"
        string_val: "Inside"
        string_val: "Corner"
        string_val: "Inside"
        string_val: "Inside"
        string_val: "CulDSac"
        string_val: "Inside"
        string_val: "Inside"
        string_val: "Inside"
        string_val: "Inside"
        string_val: "Inside"
        string_val: "Inside"
        string_val: "Inside"
        string_val: "Inside"
        string_val: "Inside"
        string_val: "Inside"
        string_val: "Inside"
        string_val: "Inside"
        string_val: "Inside"
        string_val: "Inside"
        string_val: "Corner"
        string_val: "Inside"
        string_val: "Inside"
        string_val: "Corner"
        string_val: "Corner"
        string_val: "Inside"
        string_val: "Inside"
        string_val: "Inside"
        string_val: "Inside"
        string_val: "Inside"
        string_val: "Corner"
        string_val: "Corner"
        string_val: "Inside"
        string_val: "Inside"
        string_val: "Inside"
        string_val: "CulDSac"
        string_val: "FR2"
        string_val: "CulDSac"
        string_val: "Corner"
        string_val: "Inside"
        string_val: "Corner"
        string_val: "Inside"
        string_val: "Corner"
        string_val: "FR2"
        string_val: "Inside"
        string_val: "Inside"
        string_val: "Inside"
        string_val: "Inside"
        string_val: "Corner"
        string_val: "Inside"
        string_val: "FR2"
        string_val: "Inside"
        string_val: "Inside"
        string_val: "Inside"
        string_val: "Inside"
        string_val: "Inside"
        string_val: "Inside"
        string_val: "Inside"
        string_val: "CulDSac"
        string_val: "Inside"
        string_val: "Inside"
        string_val: "Inside"
        string_val: "FR2"
        string_val: "Inside"
        string_val: "Inside"
        string_val: "CulDSac"
        string_val: "Corner"
        string_val: "CulDSac"
        string_val: "Inside"
        string_val: "Corner"
        string_val: "Inside"
        string_val: "Inside"
        string_val: "Inside"
        string_val: "Inside"
        string_val: "Corner"
        string_val: "Inside"
        string_val: "Inside"
        string_val: "Inside"
        string_val: "Inside"
        string_val: "Inside"
        string_val: "Corner"
        string_val: "Inside"
        string_val: "Corner"
        string_val: "Inside"
        string_val: "Corner"
        string_val: "Inside"
        string_val: "Corner"
        string_val: "Inside"
        string_val: "Inside"
        string_val: "Inside"
        string_val: "Inside"
        string_val: "Corner"
        string_val: "Inside"
        string_val: "Inside"
        string_val: "CulDSac"
        string_val: "Inside"
        string_val: "Inside"
        string_val: "Inside"
        string_val: "Corner"
        string_val: "Inside"
        string_val: "CulDSac"
        string_val: "Inside"
        string_val: "Corner"
        string_val: "Inside"
        string_val: "Inside"
        string_val: "Inside"
        string_val: "Inside"
        string_val: "Inside"
        string_val: "Corner"
        string_val: "Corner"
        string_val: "Inside"
        string_val: "Inside"
        string_val: "FR2"
        string_val: "Inside"
        string_val: "Inside"
        string_val: "Corner"
        string_val: "Corner"
        string_val: "Inside"
        string_val: "Corner"
        string_val: "Corner"
        string_val: "FR2"
        string_val: "Corner"
        string_val: "Inside"
        string_val: "Inside"
        string_val: "Inside"
        string_val: "Inside"
        string_val: "Corner"
        string_val: "Inside"
        string_val: "Corner"
        string_val: "Corner"
        string_val: "Inside"
        string_val: "FR2"
        string_val: "Inside"
        string_val: "CulDSac"
        string_val: "Corner"
        string_val: "Inside"
        string_val: "Inside"
        string_val: "Inside"
        string_val: "Inside"
        string_val: "Inside"
        string_val: "Inside"
        string_val: "Inside"
        string_val: "FR2"
        string_val: "Inside"
        string_val: "Inside"
        string_val: "Inside"
        string_val: "Inside"
        string_val: "Corner"
        string_val: "Inside"
        string_val: "Inside"
        string_val: "Inside"
        string_val: "Corner"
        string_val: "Corner"
        string_val: "Inside"
        string_val: "CulDSac"
        string_val: "Inside"
        string_val: "Inside"
        string_val: "FR2"
        string_val: "Inside"
        string_val: "Inside"
        string_val: "CulDSac"
        string_val: "Corner"
        string_val: "Inside"
        string_val: "CulDSac"
        string_val: "Inside"
        string_val: "Inside"
        string_val: "Inside"
        string_val: "Inside"
        string_val: "CulDSac"
        string_val: "Corner"
        string_val: "Corner"
        string_val: "Inside"
        string_val: "FR2"
        string_val: "CulDSac"
        string_val: "Inside"
        string_val: "Inside"
        string_val: "Corner"
        string_val: "FR2"
        string_val: "Inside"
        string_val: "Corner"
        string_val: "CulDSac"
        string_val: "FR2"
        string_val: "Inside"
        string_val: "Inside"
        string_val: "Inside"
        string_val: "Inside"
        string_val: "Inside"
        string_val: "Inside"
        string_val: "Inside"
        string_val: "Inside"
        string_val: "Corner"
        string_val: "Inside"
        string_val: "Inside"
        string_val: "Inside"
        string_val: "Inside"
        string_val: "Corner"
        string_val: "Inside"
        string_val: "Corner"
        string_val: "Corner"
        string_val: "CulDSac"
        string_val: "Inside"
        string_val: "Corner"
        string_val: "Inside"
        string_val: "Inside"
        string_val: "Inside"
        string_val: "Inside"
        string_val: "Inside"
        string_val: "Inside"
        string_val: "FR2"
        string_val: "Inside"
        string_val: "Inside"
        string_val: "Inside"
        string_val: "Corner"
        string_val: "Inside"
        string_val: "Inside"
        string_val: "Inside"
        string_val: "Inside"
        string_val: "Corner"
        string_val: "Inside"
        string_val: "Inside"
        string_val: "CulDSac"
        string_val: "Inside"
        string_val: "Inside"
        string_val: "CulDSac"
        string_val: "Corner"
        string_val: "FR2"
        string_val: "Inside"
        string_val: "Inside"
        string_val: "Inside"
        string_val: "Inside"
        string_val: "Corner"
        string_val: "CulDSac"
        string_val: "Inside"
        string_val: "Inside"
        string_val: "Inside"
        string_val: "Inside"
        string_val: "Inside"
        string_val: "Corner"
        string_val: "Inside"
        string_val: "Inside"
        string_val: "Inside"
        string_val: "FR2"
        string_val: "Inside"
        string_val: "Inside"
        string_val: "Inside"
        string_val: "Inside"
        string_val: "FR2"
        string_val: "FR2"
        string_val: "Inside"
        string_val: "Corner"
        string_val: "CulDSac"
        string_val: "Inside"
        string_val: "Inside"
        string_val: "FR2"
        string_val: "CulDSac"
        string_val: "Inside"
        string_val: "Inside"
        string_val: "Inside"
        string_val: "Inside"
        string_val: "Inside"
        string_val: "Inside"
        string_val: "Corner"
        string_val: "Inside"
        string_val: "Inside"
        string_val: "Corner"
        string_val: "Inside"
        string_val: "Inside"
        string_val: "FR2"
        string_val: "Inside"
        string_val: "Inside"
        string_val: "CulDSac"
        string_val: "Inside"
        string_val: "Inside"
        string_val: "Inside"
        string_val: "Inside"
        string_val: "Inside"
        string_val: "Inside"
        string_val: "Inside"
        string_val: "Inside"
        string_val: "Inside"
        string_val: "Inside"
        string_val: "Inside"
        string_val: "Inside"
        string_val: "CulDSac"
        string_val: "Inside"
        string_val: "Corner"
        string_val: "Inside"
        string_val: "Inside"
        string_val: "Inside"
        string_val: "Inside"
        string_val: "CulDSac"
        string_val: "Inside"
        string_val: "Inside"
        string_val: "Inside"
        string_val: "Inside"
        string_val: "Inside"
        string_val: "Inside"
        string_val: "Inside"
        string_val: "Inside"
        string_val: "Inside"
        string_val: "Corner"
        string_val: "Inside"
        string_val: "Inside"
        string_val: "Inside"
        string_val: "Corner"
        string_val: "Inside"
        string_val: "Inside"
        string_val: "Inside"
        string_val: "Inside"
        string_val: "Inside"
        string_val: "Inside"
        string_val: "Corner"
        string_val: "Inside"
        string_val: "Inside"
        string_val: "Corner"
        string_val: "Corner"
        string_val: "CulDSac"
        string_val: "Inside"
        string_val: "Inside"
        string_val: "CulDSac"
        string_val: "Corner"
        string_val: "Corner"
        string_val: "Inside"
        string_val: "Inside"
        string_val: "Inside"
        string_val: "Inside"
        string_val: "Inside"
        string_val: "Corner"
        string_val: "Corner"
        string_val: "Corner"
        string_val: "Inside"
        string_val: "Inside"
        string_val: "Inside"
        string_val: "Inside"
        string_val: "Inside"
        string_val: "Inside"
        string_val: "Inside"
        string_val: "Inside"
        string_val: "Inside"
        string_val: "Inside"
        string_val: "Inside"
        string_val: "Inside"
        string_val: "Inside"
        string_val: "Inside"
        string_val: "CulDSac"
        string_val: "Inside"
        string_val: "Inside"
        string_val: "CulDSac"
        string_val: "Inside"
        string_val: "Inside"
        string_val: "Inside"
        string_val: "Inside"
        string_val: "Inside"
        string_val: "Corner"
        string_val: "Corner"
        string_val: "Inside"
        string_val: "Inside"
        string_val: "Inside"
        string_val: "Inside"
        string_val: "Inside"
        string_val: "Inside"
        string_val: "Inside"
        string_val: "FR2"
        string_val: "Inside"
        string_val: "Inside"
        string_val: "Inside"
        string_val: "Inside"
        string_val: "Inside"
        string_val: "Inside"
        string_val: "Inside"
        string_val: "Inside"
        string_val: "Inside"
        string_val: "Inside"
        string_val: "Inside"
        string_val: "Inside"
        string_val: "Corner"
        string_val: "Inside"
        string_val: "Inside"
        string_val: "Inside"
        string_val: "Inside"
        string_val: "Inside"
        string_val: "Corner"
        string_val: "Inside"
        string_val: "Inside"
        string_val: "Inside"
        string_val: "Inside"
        string_val: "Inside"
        string_val: "Inside"
        string_val: "Inside"
        string_val: "Corner"
        string_val: "Inside"
        string_val: "Inside"
        string_val: "CulDSac"
        string_val: "Inside"
        string_val: "Inside"
        string_val: "Corner"
        string_val: "Inside"
        string_val: "Corner"
        string_val: "Inside"
        string_val: "CulDSac"
        string_val: "Corner"
        string_val: "Inside"
        string_val: "Inside"
        string_val: "Corner"
        string_val: "Inside"
        string_val: "Inside"
        string_val: "Inside"
        string_val: "Corner"
        string_val: "Inside"
        string_val: "Inside"
        string_val: "Inside"
        string_val: "Inside"
        string_val: "Inside"
        string_val: "Inside"
        string_val: "Inside"
        string_val: "Inside"
        string_val: "Inside"
        string_val: "Corner"
        string_val: "Inside"
        string_val: "Inside"
        string_val: "Corner"
        string_val: "Inside"
        string_val: "Inside"
        string_val: "Inside"
        string_val: "Inside"
        string_val: "Inside"
        string_val: "Inside"
        string_val: "Inside"
        string_val: "Inside"
        string_val: "Inside"
        string_val: "Inside"
        string_val: "Inside"
        string_val: "Corner"
        string_val: "CulDSac"
        string_val: "Corner"
        string_val: "Inside"
        string_val: "FR2"
        string_val: "Inside"
        string_val: "Inside"
        string_val: "Inside"
        string_val: "Inside"
        string_val: "Inside"
        string_val: "Inside"
        string_val: "Inside"
        string_val: "Inside"
        string_val: "Corner"
        string_val: "Inside"
        string_val: "Inside"
        string_val: "Corner"
        string_val: "Inside"
        string_val: "Inside"
        string_val: "Inside"
        string_val: "Inside"
        string_val: "FR2"
        string_val: "Inside"
        string_val: "Inside"
        string_val: "Inside"
        string_val: "Inside"
        string_val: "Corner"
        string_val: "Corner"
        string_val: "Inside"
        string_val: "CulDSac"
        string_val: "Inside"
        string_val: "Inside"
        string_val: "FR2"
        string_val: "Inside"
        string_val: "Inside"
        string_val: "Corner"
        string_val: "Inside"
        string_val: "Inside"
        string_val: "Inside"
        string_val: "Inside"
        string_val: "Inside"
        string_val: "Inside"
        string_val: "Inside"
        string_val: "Inside"
        string_val: "Corner"
        string_val: "Corner"
        string_val: "Inside"
        string_val: "Corner"
        string_val: "Inside"
        string_val: "Inside"
        string_val: "Inside"
        string_val: "Inside"
        string_val: "Inside"
        string_val: "Inside"
        string_val: "CulDSac"
        string_val: "Inside"
        string_val: "Inside"
        string_val: "Inside"
        string_val: "Corner"
        string_val: "Inside"
        string_val: "Inside"
        string_val: "Corner"
        string_val: "Inside"
        string_val: "Inside"
        string_val: "CulDSac"
        string_val: "Inside"
        string_val: "Inside"
        string_val: "Inside"
        string_val: "Inside"
        string_val: "Corner"
        string_val: "Inside"
        string_val: "Inside"
        string_val: "Inside"
        string_val: "Inside"
        string_val: "Inside"
        string_val: "Inside"
        string_val: "Inside"
        string_val: "Inside"
        string_val: "Inside"
        string_val: "Inside"
        string_val: "Inside"
        string_val: "Inside"
        string_val: "Inside"
        string_val: "Inside"
        string_val: "Inside"
        string_val: "Inside"
        string_val: "FR2"
        string_val: "Corner"
        string_val: "Inside"
        string_val: "Inside"
        string_val: "Inside"
        string_val: "Inside"
        string_val: "Inside"
        string_val: "Corner"
        string_val: "Inside"
        string_val: "Inside"
        string_val: "Inside"
        string_val: "Inside"
        string_val: "Inside"
        string_val: "Inside"
        string_val: "Inside"
        string_val: "CulDSac"
        string_val: "Inside"
        string_val: "CulDSac"
        string_val: "CulDSac"
        string_val: "Inside"
        string_val: "Corner"
        string_val: "Corner"
        string_val: "FR3"
        string_val: "Inside"
        string_val: "Inside"
        string_val: "Corner"
        string_val: "Inside"
        string_val: "Inside"
        string_val: "FR2"
        string_val: "Inside"
        string_val: "Inside"
        string_val: "Corner"
        string_val: "Inside"
        string_val: "Inside"
        string_val: "Corner"
        string_val: "Inside"
        string_val: "Inside"
        string_val: "Inside"
        string_val: "Corner"
        string_val: "Inside"
        string_val: "Inside"
        string_val: "Inside"
        string_val: "Inside"
        string_val: "Inside"
        string_val: "Inside"
        string_val: "Inside"
        string_val: "Corner"
        string_val: "Inside"
        string_val: "Inside"
        string_val: "Inside"
        string_val: "Inside"
        string_val: "Inside"
        string_val: "Inside"
        string_val: "Inside"
        string_val: "Inside"
        string_val: "Inside"
        string_val: "Inside"
        string_val: "Inside"
        string_val: "Inside"
        string_val: "Inside"
        string_val: "Inside"
        string_val: "Inside"
        string_val: "Inside"
        string_val: "Corner"
        string_val: "Inside"
        string_val: "Inside"
        string_val: "Inside"
        string_val: "Inside"
        string_val: "CulDSac"
        string_val: "FR2"
        string_val: "Inside"
        string_val: "Inside"
        string_val: "Inside"
        string_val: "Inside"
        string_val: "Inside"
        string_val: "CulDSac"
        string_val: "FR2"
        string_val: "Inside"
        string_val: "Inside"
        string_val: "Inside"
        string_val: "Inside"
        string_val: "Inside"
        string_val: "Inside"
        string_val: "Corner"
        string_val: "Corner"
        string_val: "Inside"
        string_val: "Inside"
        string_val: "CulDSac"
        string_val: "Inside"
        string_val: "Inside"
        string_val: "Corner"
        string_val: "Inside"
        string_val: "CulDSac"
        string_val: "Inside"
        string_val: "Inside"
        string_val: "Inside"
        string_val: "Inside"
        string_val: "Inside"
        string_val: "Inside"
        string_val: "Corner"
        string_val: "Inside"
        string_val: "Corner"
        string_val: "Inside"
        string_val: "Inside"
        string_val: "Inside"
        string_val: "Inside"
        string_val: "Inside"
        string_val: "Inside"
        string_val: "Inside"
        string_val: "Inside"
        string_val: "CulDSac"
        string_val: "Corner"
        string_val: "Inside"
        string_val: "CulDSac"
        string_val: "FR2"
        string_val: "Inside"
        string_val: "Inside"
        string_val: "Inside"
        string_val: "Inside"
        string_val: "FR2"
        string_val: "Inside"
        string_val: "Inside"
        string_val: "Inside"
        string_val: "Inside"
        string_val: "Inside"
        string_val: "Inside"
        string_val: "Inside"
        string_val: "Inside"
        string_val: "Corner"
        string_val: "FR2"
        string_val: "Inside"
        string_val: "Corner"
        string_val: "Inside"
        string_val: "Inside"
        string_val: "Inside"
        string_val: "Inside"
        string_val: "Inside"
        string_val: "Inside"
        string_val: "Inside"
        string_val: "Corner"
        string_val: "Inside"
        string_val: "Inside"
        string_val: "Inside"
        string_val: "Inside"
        string_val: "Inside"
        string_val: "Inside"
        string_val: "Inside"
        string_val: "Corner"
        string_val: "Corner"
        string_val: "Inside"
        string_val: "Inside"
        string_val: "Inside"
        string_val: "CulDSac"
        string_val: "Inside"
        string_val: "CulDSac"
        string_val: "Inside"
        string_val: "Inside"
        string_val: "Corner"
        string_val: "Inside"
        string_val: "Corner"
        string_val: "Corner"
        string_val: "Inside"
        string_val: "Inside"
        string_val: "Inside"
        string_val: "CulDSac"
        string_val: "Inside"
        string_val: "CulDSac"
        string_val: "Inside"
        string_val: "Inside"
        string_val: "Inside"
        string_val: "Inside"
        string_val: "Inside"
        string_val: "Corner"
        string_val: "Inside"
        string_val: "Inside"
        string_val: "Inside"
        string_val: "Inside"
        string_val: "Inside"
        string_val: "Inside"
        string_val: "CulDSac"
        string_val: "Corner"
        string_val: "Corner"
        string_val: "Inside"
        string_val: "Corner"
        string_val: "Inside"
        string_val: "CulDSac"
        string_val: "Inside"
        string_val: "Inside"
        string_val: "Corner"
        string_val: "Inside"
        string_val: "Inside"
        string_val: "Corner"
        string_val: "Inside"
        string_val: "Inside"
        string_val: "Corner"
        string_val: "Inside"
        string_val: "Inside"
        string_val: "CulDSac"
        string_val: "Corner"
        string_val: "Inside"
        string_val: "Inside"
        string_val: "Inside"
        string_val: "Inside"
        string_val: "Inside"
        string_val: "Inside"
        string_val: "Inside"
        string_val: "CulDSac"
        string_val: "Inside"
        string_val: "CulDSac"
        string_val: "Inside"
        string_val: "Inside"
        string_val: "Inside"
        string_val: "Inside"
        string_val: "Inside"
        string_val: "Corner"
        string_val: "Corner"
        string_val: "Inside"
        string_val: "Inside"
        string_val: "Inside"
        string_val: "Inside"
        string_val: "FR2"
        string_val: "Inside"
        string_val: "Inside"
        string_val: "Inside"
        string_val: "Corner"
        string_val: "Inside"
        string_val: "Inside"
        string_val: "Inside"
        string_val: "Inside"
        string_val: "Inside"
        string_val: "Inside"
        string_val: "Corner"
        string_val: "Corner"
        string_val: "Inside"
        string_val: "Inside"
        string_val: "Inside"
        string_val: "Inside"
        string_val: "Inside"
        string_val: "Inside"
        string_val: "Inside"
        string_val: "Inside"
        string_val: "Inside"
        string_val: "Corner"
        string_val: "Corner"
        string_val: "Inside"
        string_val: "Corner"
        string_val: "Inside"
        string_val: "Inside"
        string_val: "Corner"
        string_val: "Inside"
        string_val: "Corner"
        string_val: "Inside"
        string_val: "Inside"
        string_val: "Corner"
        string_val: "Inside"
        string_val: "Inside"
        string_val: "Corner"
        string_val: "Inside"
        string_val: "Inside"
        string_val: "Inside"
        string_val: "Inside"
        string_val: "Inside"
        string_val: "Inside"
        string_val: "Corner"
        string_val: "Inside"
        string_val: "Inside"
        string_val: "Corner"
        string_val: "Inside"
        string_val: "Inside"
        string_val: "Inside"
        string_val: "Inside"
        string_val: "Inside"
        string_val: "Inside"
        string_val: "Inside"
        string_val: "Corner"
        string_val: "Inside"
        string_val: "Inside"
        string_val: "FR2"
        string_val: "Corner"
        string_val: "Inside"
        string_val: "CulDSac"
        string_val: "Inside"
        string_val: "Inside"
        string_val: "Inside"
        string_val: "Inside"
        string_val: "Inside"
        string_val: "Corner"
        string_val: "Inside"
        string_val: "Corner"
        string_val: "Inside"
        string_val: "Corner"
        string_val: "Inside"
        string_val: "Inside"
        string_val: "Corner"
        string_val: "Inside"
        string_val: "Inside"
        string_val: "Inside"
        string_val: "Inside"
        string_val: "Inside"
        string_val: "CulDSac"
        string_val: "Inside"
        string_val: "Inside"
        string_val: "Corner"
        string_val: "Inside"
        string_val: "Corner"
        string_val: "Inside"
        string_val: "Inside"
        string_val: "Corner"
        string_val: "Inside"
        string_val: "Corner"
        string_val: "Corner"
        string_val: "Inside"
        string_val: "Inside"
        string_val: "Inside"
        string_val: "Inside"
        string_val: "CulDSac"
        string_val: "FR2"
        string_val: "Inside"
        string_val: "Inside"
        string_val: "Corner"
        string_val: "Inside"
        string_val: "Inside"
        string_val: "Inside"
        string_val: "Inside"
        string_val: "Inside"
        string_val: "Inside"
        string_val: "Inside"
        string_val: "Corner"
        string_val: "Inside"
        string_val: "Inside"
        string_val: "Corner"
        string_val: "Corner"
        string_val: "Inside"
        string_val: "Inside"
        string_val: "Inside"
        string_val: "Corner"
        string_val: "Inside"
        string_val: "Inside"
        string_val: "Inside"
        string_val: "Corner"
        string_val: "Inside"
        string_val: "Inside"
        string_val: "Corner"
        string_val: "Inside"
        string_val: "Inside"
        string_val: "Inside"
        string_val: "Inside"
        string_val: "Inside"
        string_val: "Inside"
        string_val: "Inside"
        string_val: "CulDSac"
        string_val: "Inside"
        string_val: "Inside"
        string_val: "Corner"
        string_val: "Inside"
        string_val: "Inside"
        string_val: "Corner"
        string_val: "Corner"
        string_val: "Inside"
        string_val: "Inside"
        string_val: "Inside"
        string_val: "Inside"
        string_val: "Inside"
        string_val: "Inside"
        string_val: "Corner"
        string_val: "Inside"
        string_val: "Inside"
        string_val: "Inside"
        string_val: "Corner"
        string_val: "Inside"
        string_val: "Inside"
        string_val: "Inside"
        string_val: "Inside"
        string_val: "Corner"
        string_val: "FR2"
        string_val: "Inside"
        string_val: "Inside"
        string_val: "Inside"
        string_val: "Corner"
        string_val: "Corner"
        string_val: "Corner"
        string_val: "Corner"
        string_val: "Corner"
        string_val: "Corner"
        string_val: "Inside"
        string_val: "Inside"
        string_val: "FR3"
        string_val: "Inside"
        string_val: "Corner"
        string_val: "Inside"
        string_val: "Corner"
        string_val: "Inside"
        string_val: "CulDSac"
        string_val: "Inside"
        string_val: "Inside"
        string_val: "Inside"
        string_val: "Inside"
        string_val: "Inside"
        string_val: "Inside"
        string_val: "Inside"
        string_val: "Corner"
        string_val: "Inside"
        string_val: "Corner"
        string_val: "Corner"
        string_val: "Inside"
        string_val: "Inside"
        string_val: "Corner"
        string_val: "Inside"
        string_val: "CulDSac"
        string_val: "Inside"
        string_val: "Inside"
        string_val: "Inside"
        string_val: "Corner"
        string_val: "Corner"
        string_val: "Inside"
        string_val: "Corner"
        string_val: "CulDSac"
        string_val: "Inside"
        string_val: "Inside"
        string_val: "CulDSac"
        string_val: "Inside"
        string_val: "Inside"
        string_val: "Corner"
        string_val: "Inside"
        string_val: "Inside"
        string_val: "Inside"
        string_val: "Inside"
        string_val: "Inside"
        string_val: "Inside"
        string_val: "Inside"
        string_val: "Corner"
        string_val: "Inside"
        string_val: "Inside"
        string_val: "Inside"
        string_val: "Inside"
        string_val: "Corner"
        string_val: "Inside"
        string_val: "Inside"
        string_val: "Inside"
        string_val: "Inside"
        string_val: "FR2"
        string_val: "Inside"
        string_val: "Corner"
        string_val: "Inside"
        string_val: "Inside"
        string_val: "Inside"
        string_val: "Corner"
        string_val: "Inside"
        string_val: "Inside"
        string_val: "Inside"
        string_val: "FR2"
        string_val: "Inside"
        string_val: "Corner"
        string_val: "Corner"
        string_val: "Inside"
        string_val: "Inside"
        string_val: "Corner"
        string_val: "Inside"
        string_val: "Corner"
        string_val: "Inside"
        string_val: "Inside"
        string_val: "Inside"
        string_val: "Inside"
        string_val: "Inside"
        string_val: "FR3"
        string_val: "FR2"
        string_val: "Inside"
        string_val: "Inside"
        string_val: "Inside"
        string_val: "Inside"
        string_val: "Inside"
        string_val: "Corner"
      }
    }
  }
}
node {
  name: "tensors/component_3"
  op: "Const"
  device: "/device:CPU:0"
  attr {
    key: "_output_shapes"
    value {
      list {
        shape {
          dim {
            size: 1200
          }
        }
      }
    }
  }
  attr {
    key: "dtype"
    value {
      type: DT_DOUBLE
    }
  }
  attr {
    key: "value"
    value {
      tensor {
        dtype: DT_DOUBLE
        tensor_shape {
          dim {
            size: 1200
          }
        }
        tensor_content: "…"
      }
    }
  }
}
node {
  name: "tensors/component_4"
  op: "Const"
  device: "/device:CPU:0"
  attr {
    key: "_output_shapes"
    value {
      list {
        shape {
          dim {
            size: 1200
          }
        }
      }
    }
  }
  attr {
    key: "dtype"
    value {
      type: DT_STRING
    }
  }
  attr {
    key: "value"
    value {
      tensor {
        dtype: DT_STRING
        tensor_shape {
          dim {
            size: 1200
          }
        }
        string_val: "NAmes"
        string_val: "NAmes"
        string_val: "Gilbert"
        string_val: "NAmes"
        string_val: "IDOTRR"
        string_val: "OldTown"
        string_val: "Timber"
        string_val: "CollgCr"
        string_val: "SWISU"
        string_val: "SawyerW"
        string_val: "NAmes"
        string_val: "MeadowV"
        string_val: "NAmes"
        string_val: "StoneBr"
        string_val: "MeadowV"
        string_val: "Sawyer"
        string_val: "Gilbert"
        string_val: "OldTown"
        string_val: "SawyerW"
        string_val: "NAmes"
        string_val: "Edwards"
        string_val: "NAmes"
        string_val: "ClearCr"
        string_val: "Gilbert"
        string_val: "Gilbert"
        string_val: "CollgCr"
        string_val: "CollgCr"
        string_val: "NAmes"
        string_val: "NoRidge"
        string_val: "OldTown"
        string_val: "BrkSide"
        string_val: "NAmes"
        string_val: "OldTown"
        string_val: "NWAmes"
        string_val: "ClearCr"
        string_val: "CollgCr"
        string_val: "Veenker"
        string_val: "NAmes"
        string_val: "Edwards"
        string_val: "SWISU"
        string_val: "Sawyer"
        string_val: "Edwards"
        string_val: "SawyerW"
        string_val: "NAmes"
        string_val: "Mitchel"
        string_val: "NWAmes"
        string_val: "OldTown"
        string_val: "NAmes"
        string_val: "Blmngtn"
        string_val: "Crawfor"
        string_val: "CollgCr"
        string_val: "Edwards"
        string_val: "NWAmes"
        string_val: "Mitchel"
        string_val: "CollgCr"
        string_val: "NridgHt"
        string_val: "BrkSide"
        string_val: "Somerst"
        string_val: "NridgHt"
        string_val: "Gilbert"
        string_val: "Sawyer"
        string_val: "OldTown"
        string_val: "Edwards"
        string_val: "Gilbert"
        string_val: "BrkSide"
        string_val: "SWISU"
        string_val: "BrkSide"
        string_val: "OldTown"
        string_val: "StoneBr"
        string_val: "NAmes"
        string_val: "NWAmes"
        string_val: "Somerst"
        string_val: "CollgCr"
        string_val: "Gilbert"
        string_val: "Somerst"
        string_val: "SawyerW"
        string_val: "NWAmes"
        string_val: "CollgCr"
        string_val: "BrkSide"
        string_val: "NWAmes"
        string_val: "CollgCr"
        string_val: "Gilbert"
        string_val: "NAmes"
        string_val: "CollgCr"
        string_val: "NAmes"
        string_val: "NridgHt"
        string_val: "CollgCr"
        string_val: "Edwards"
        string_val: "NWAmes"
        string_val: "NAmes"
        string_val: "Edwards"
        string_val: "NWAmes"
        string_val: "StoneBr"
        string_val: "OldTown"
        string_val: "OldTown"
        string_val: "CollgCr"
        string_val: "Somerst"
        string_val: "NAmes"
        string_val: "NAmes"
        string_val: "Crawfor"
        string_val: "NAmes"
        string_val: "NAmes"
        string_val: "NAmes"
        string_val: "Blmngtn"
        string_val: "NAmes"
        string_val: "SWISU"
        string_val: "Gilbert"
        string_val: "Mitchel"
        string_val: "CollgCr"
        string_val: "Sawyer"
        string_val: "NAmes"
        string_val: "CollgCr"
        string_val: "NWAmes"
        string_val: "CollgCr"
        string_val: "SawyerW"
        string_val: "BrkSide"
        string_val: "Edwards"
        string_val: "NAmes"
        string_val: "NAmes"
        string_val: "Sawyer"
        string_val: "Somerst"
        string_val: "NAmes"
        string_val: "NAmes"
        string_val: "NAmes"
        string_val: "OldTown"
        string_val: "Edwards"
        string_val: "NAmes"
        string_val: "Edwards"
        string_val: "Mitchel"
        string_val: "NAmes"
        string_val: "CollgCr"
        string_val: "NAmes"
        string_val: "Gilbert"
        string_val: "OldTown"
        string_val: "CollgCr"
        string_val: "OldTown"
        string_val: "Gilbert"
        string_val: "OldTown"
        string_val: "OldTown"
        string_val: "Sawyer"
        string_val: "NWAmes"
        string_val: "OldTown"
        string_val: "Edwards"
        string_val: "CollgCr"
        string_val: "MeadowV"
        string_val: "NAmes"
        string_val: "NridgHt"
        string_val: "NAmes"
        string_val: "NridgHt"
        string_val: "NAmes"
        string_val: "Sawyer"
        string_val: "NAmes"
        string_val: "NAmes"
        string_val: "OldTown"
        string_val: "OldTown"
        string_val: "IDOTRR"
        string_val: "CollgCr"
        string_val: "Crawfor"
        string_val: "CollgCr"
        string_val: "MeadowV"
        string_val: "StoneBr"
        string_val: "BrkSide"
        string_val: "NridgHt"
        string_val: "CollgCr"
        string_val: "NAmes"
        string_val: "Gilbert"
        string_val: "Somerst"
        string_val: "NAmes"
        string_val: "Edwards"
        string_val: "NAmes"
        string_val: "Somerst"
        string_val: "ClearCr"
        string_val: "StoneBr"
        string_val: "SawyerW"
        string_val: "Crawfor"
        string_val: "CollgCr"
        string_val: "CollgCr"
        string_val: "Sawyer"
        string_val: "IDOTRR"
        string_val: "Sawyer"
        string_val: "Somerst"
        string_val: "SWISU"
        string_val: "Gilbert"
        string_val: "CollgCr"
        string_val: "NoRidge"
        string_val: "Blmngtn"
        string_val: "Somerst"
        string_val: "Edwards"
        string_val: "Crawfor"
        string_val: "Timber"
        string_val: "IDOTRR"
        string_val: "NAmes"
        string_val: "NWAmes"
        string_val: "NWAmes"
        string_val: "OldTown"
        string_val: "NridgHt"
        string_val: "NAmes"
        string_val: "Blmngtn"
        string_val: "Edwards"
        string_val: "Somerst"
        string_val: "CollgCr"
        string_val: "Somerst"
        string_val: "Edwards"
        string_val: "CollgCr"
        string_val: "Edwards"
        string_val: "NAmes"
        string_val: "Edwards"
        string_val: "NridgHt"
        string_val: "Sawyer"
        string_val: "IDOTRR"
        string_val: "CollgCr"
        string_val: "MeadowV"
        string_val: "Edwards"
        string_val: "Mitchel"
        string_val: "MeadowV"
        string_val: "NoRidge"
        string_val: "NPkVill"
        string_val: "NAmes"
        string_val: "NWAmes"
        string_val: "CollgCr"
        string_val: "SawyerW"
        string_val: "SawyerW"
        string_val: "NWAmes"
        string_val: "Edwards"
        string_val: "CollgCr"
        string_val: "NAmes"
        string_val: "Edwards"
        string_val: "SWISU"
        string_val: "NridgHt"
        string_val: "Blmngtn"
        string_val: "NAmes"
        string_val: "Sawyer"
        string_val: "OldTown"
        string_val: "OldTown"
        string_val: "NAmes"
        string_val: "SawyerW"
        string_val: "NPkVill"
        string_val: "Gilbert"
        string_val: "Mitchel"
        string_val: "NAmes"
        string_val: "NAmes"
        string_val: "NAmes"
        string_val: "NridgHt"
        string_val: "Gilbert"
        string_val: "NAmes"
        string_val: "ClearCr"
        string_val: "NoRidge"
        string_val: "StoneBr"
        string_val: "Crawfor"
        string_val: "ClearCr"
        string_val: "NWAmes"
        string_val: "Edwards"
        string_val: "SawyerW"
        string_val: "Sawyer"
        string_val: "NAmes"
        string_val: "NridgHt"
        string_val: "Edwards"
        string_val: "OldTown"
        string_val: "Gilbert"
        string_val: "NAmes"
        string_val: "Somerst"
        string_val: "BrkSide"
        string_val: "IDOTRR"
        string_val: "MeadowV"
        string_val: "Sawyer"
        string_val: "NAmes"
        string_val: "NridgHt"
        string_val: "SawyerW"
        string_val: "NoRidge"
        string_val: "NAmes"
        string_val: "OldTown"
        string_val: "Gilbert"
        string_val: "NAmes"
        string_val: "CollgCr"
        string_val: "CollgCr"
        string_val: "Mitchel"
        string_val: "NoRidge"
        string_val: "CollgCr"
        string_val: "NWAmes"
        string_val: "Gilbert"
        string_val: "Somerst"
        string_val: "Sawyer"
        string_val: "Mitchel"
        string_val: "Somerst"
        string_val: "NridgHt"
        string_val: "ClearCr"
        string_val: "Somerst"
        string_val: "CollgCr"
        string_val: "Crawfor"
        string_val: "CollgCr"
        string_val: "BrkSide"
        string_val: "Somerst"
        string_val: "NAmes"
        string_val: "NAmes"
        string_val: "NridgHt"
        string_val: "NAmes"
        string_val: "Edwards"
        string_val: "NAmes"
        string_val: "NridgHt"
        string_val: "Blueste"
        string_val: "NAmes"
        string_val: "NWAmes"
        string_val: "OldTown"
        string_val: "SawyerW"
        string_val: "NAmes"
        string_val: "Gilbert"
        string_val: "NridgHt"
        string_val: "NWAmes"
        string_val: "NAmes"
        string_val: "NridgHt"
        string_val: "Gilbert"
        string_val: "SWISU"
        string_val: "CollgCr"
        string_val: "SawyerW"
        string_val: "StoneBr"
        string_val: "CollgCr"
        string_val: "BrkSide"
        string_val: "Mitchel"
        string_val: "NridgHt"
        string_val: "NoRidge"
        string_val: "NAmes"
        string_val: "NoRidge"
        string_val: "NWAmes"
        string_val: "Gilbert"
        string_val: "CollgCr"
        string_val: "Edwards"
        string_val: "NoRidge"
        string_val: "NAmes"
        string_val: "Gilbert"
        string_val: "Somerst"
        string_val: "CollgCr"
        string_val: "Gilbert"
        string_val: "BrDale"
        string_val: "OldTown"
        string_val: "CollgCr"
        string_val: "NAmes"
        string_val: "OldTown"
        string_val: "Crawfor"
        string_val: "Timber"
        string_val: "OldTown"
        string_val: "Gilbert"
        string_val: "Crawfor"
        string_val: "Crawfor"
        string_val: "StoneBr"
        string_val: "SawyerW"
        string_val: "CollgCr"
        string_val: "NAmes"
        string_val: "NridgHt"
        string_val: "BrDale"
        string_val: "SawyerW"
        string_val: "CollgCr"
        string_val: "NWAmes"
        string_val: "CollgCr"
        string_val: "CollgCr"
        string_val: "Timber"
        string_val: "IDOTRR"
        string_val: "NAmes"
        string_val: "OldTown"
        string_val: "Gilbert"
        string_val: "NAmes"
        string_val: "Mitchel"
        string_val: "Sawyer"
        string_val: "Crawfor"
        string_val: "ClearCr"
        string_val: "NoRidge"
        string_val: "CollgCr"
        string_val: "BrDale"
        string_val: "NAmes"
        string_val: "MeadowV"
        string_val: "OldTown"
        string_val: "Somerst"
        string_val: "Crawfor"
        string_val: "OldTown"
        string_val: "StoneBr"
        string_val: "Somerst"
        string_val: "NAmes"
        string_val: "Crawfor"
        string_val: "OldTown"
        string_val: "ClearCr"
        string_val: "OldTown"
        string_val: "OldTown"
        string_val: "OldTown"
        string_val: "NridgHt"
        string_val: "CollgCr"
        string_val: "SawyerW"
        string_val: "OldTown"
        string_val: "CollgCr"
        string_val: "CollgCr"
        string_val: "Timber"
        string_val: "OldTown"
        string_val: "Somerst"
        string_val: "Somerst"
        string_val: "Somerst"
        string_val: "Mitchel"
        string_val: "BrkSide"
        string_val: "SWISU"
        string_val: "NridgHt"
        string_val: "CollgCr"
        string_val: "NridgHt"
        string_val: "BrDale"
        string_val: "OldTown"
        string_val: "Sawyer"
        string_val: "Edwards"
        string_val: "Edwards"
        string_val: "Somerst"
        string_val: "CollgCr"
        string_val: "Edwards"
        string_val: "NAmes"
        string_val: "Somerst"
        string_val: "Somerst"
        string_val: "Edwards"
        string_val: "BrkSide"
        string_val: "Mitchel"
        string_val: "SWISU"
        string_val: "Somerst"
        string_val: "Somerst"
        string_val: "NWAmes"
        string_val: "Timber"
        string_val: "Somerst"
        string_val: "NAmes"
        string_val: "ClearCr"
        string_val: "Mitchel"
        string_val: "OldTown"
        string_val: "Veenker"
        string_val: "NAmes"
        string_val: "NoRidge"
        string_val: "NAmes"
        string_val: "NAmes"
        string_val: "CollgCr"
        string_val: "Gilbert"
        string_val: "SawyerW"
        string_val: "OldTown"
        string_val: "OldTown"
        string_val: "NoRidge"
        string_val: "NoRidge"
        string_val: "Gilbert"
        string_val: "Somerst"
        string_val: "NridgHt"
        string_val: "BrkSide"
        string_val: "Somerst"
        string_val: "Edwards"
        string_val: "ClearCr"
        string_val: "NWAmes"
        string_val: "OldTown"
        string_val: "NridgHt"
        string_val: "NWAmes"
        string_val: "Somerst"
        string_val: "NAmes"
        string_val: "NAmes"
        string_val: "SawyerW"
        string_val: "NAmes"
        string_val: "NAmes"
        string_val: "NAmes"
        string_val: "NPkVill"
        string_val: "Gilbert"
        string_val: "CollgCr"
        string_val: "NoRidge"
        string_val: "Gilbert"
        string_val: "Gilbert"
        string_val: "Edwards"
        string_val: "CollgCr"
        string_val: "NAmes"
        string_val: "Crawfor"
        string_val: "Sawyer"
        string_val: "Crawfor"
        string_val: "Somerst"
        string_val: "NridgHt"
        string_val: "NoRidge"
        string_val: "Crawfor"
        string_val: "NAmes"
        string_val: "NAmes"
        string_val: "Veenker"
        string_val: "Gilbert"
        string_val: "Timber"
        string_val: "NAmes"
        string_val: "OldTown"
        string_val: "Edwards"
        string_val: "CollgCr"
        string_val: "IDOTRR"
        string_val: "Gilbert"
        string_val: "NoRidge"
        string_val: "NoRidge"
        string_val: "NridgHt"
        string_val: "CollgCr"
        string_val: "Crawfor"
        string_val: "OldTown"
        string_val: "ClearCr"
        string_val: "Timber"
        string_val: "NAmes"
        string_val: "Sawyer"
        string_val: "NoRidge"
        string_val: "MeadowV"
        string_val: "Somerst"
        string_val: "NWAmes"
        string_val: "Somerst"
        string_val: "Gilbert"
        string_val: "NWAmes"
        string_val: "NWAmes"
        string_val: "Mitchel"
        string_val: "BrkSide"
        string_val: "CollgCr"
        string_val: "CollgCr"
        string_val: "OldTown"
        string_val: "Sawyer"
        string_val: "IDOTRR"
        string_val: "CollgCr"
        string_val: "SawyerW"
        string_val: "Sawyer"
        string_val: "OldTown"
        string_val: "Edwards"
        string_val: "Mitchel"
        string_val: "Mitchel"
        string_val: "BrkSide"
        string_val: "Edwards"
        string_val: "CollgCr"
        string_val: "SawyerW"
        string_val: "NAmes"
        string_val: "CollgCr"
        string_val: "NAmes"
        string_val: "Edwards"
        string_val: "NAmes"
        string_val: "NAmes"
        string_val: "Sawyer"
        string_val: "NWAmes"
        string_val: "NridgHt"
        string_val: "IDOTRR"
        string_val: "Veenker"
        string_val: "Mitchel"
        string_val: "BrkSide"
        string_val: "NoRidge"
        string_val: "Edwards"
        string_val: "Edwards"
        string_val: "CollgCr"
        string_val: "CollgCr"
        string_val: "NAmes"
        string_val: "NAmes"
        string_val: "Somerst"
        string_val: "Crawfor"
        string_val: "OldTown"
        string_val: "NAmes"
        string_val: "NridgHt"
        string_val: "NoRidge"
        string_val: "Sawyer"
        string_val: "Gilbert"
        string_val: "SWISU"
        string_val: "NAmes"
        string_val: "CollgCr"
        string_val: "OldTown"
        string_val: "Edwards"
        string_val: "NAmes"
        string_val: "NAmes"
        string_val: "Crawfor"
        string_val: "Sawyer"
        string_val: "CollgCr"
        string_val: "NoRidge"
        string_val: "NridgHt"
        string_val: "Edwards"
        string_val: "ClearCr"
        string_val: "BrkSide"
        string_val: "Timber"
        string_val: "Gilbert"
        string_val: "SawyerW"
        string_val: "OldTown"
        string_val: "Somerst"
        string_val: "SawyerW"
        string_val: "NPkVill"
        string_val: "Gilbert"
        string_val: "NAmes"
        string_val: "Edwards"
        string_val: "NAmes"
        string_val: "OldTown"
        string_val: "NridgHt"
        string_val: "Mitchel"
        string_val: "NoRidge"
        string_val: "CollgCr"
        string_val: "Crawfor"
        string_val: "BrkSide"
        string_val: "NridgHt"
        string_val: "SawyerW"
        string_val: "NridgHt"
        string_val: "Edwards"
        string_val: "CollgCr"
        string_val: "SawyerW"
        string_val: "Sawyer"
        string_val: "IDOTRR"
        string_val: "NWAmes"
        string_val: "OldTown"
        string_val: "NWAmes"
        string_val: "Gilbert"
        string_val: "NAmes"
        string_val: "Gilbert"
        string_val: "OldTown"
        string_val: "NWAmes"
        string_val: "NAmes"
        string_val: "CollgCr"
        string_val: "NAmes"
        string_val: "Gilbert"
        string_val: "NridgHt"
        string_val: "Somerst"
        string_val: "NAmes"
        string_val: "Blmngtn"
        string_val: "OldTown"
        string_val: "CollgCr"
        string_val: "Somerst"
        string_val: "IDOTRR"
        string_val: "Somerst"
        string_val: "NWAmes"
        string_val: "SawyerW"
        string_val: "IDOTRR"
        string_val: "NoRidge"
        string_val: "NridgHt"
        string_val: "Edwards"
        string_val: "IDOTRR"
        string_val: "NAmes"
        string_val: "Gilbert"
        string_val: "CollgCr"
        string_val: "NAmes"
        string_val: "BrkSide"
        string_val: "CollgCr"
        string_val: "BrDale"
        string_val: "Gilbert"
        string_val: "SWISU"
        string_val: "Edwards"
        string_val: "Edwards"
        string_val: "NAmes"
        string_val: "Gilbert"
        string_val: "NWAmes"
        string_val: "Sawyer"
        string_val: "NridgHt"
        string_val: "IDOTRR"
        string_val: "NoRidge"
        string_val: "NridgHt"
        string_val: "OldTown"
        string_val: "NridgHt"
        string_val: "NAmes"
        string_val: "NridgHt"
        string_val: "NPkVill"
        string_val: "Somerst"
        string_val: "NAmes"
        string_val: "Crawfor"
        string_val: "IDOTRR"
        string_val: "BrkSide"
        string_val: "SawyerW"
        string_val: "Crawfor"
        string_val: "CollgCr"
        string_val: "MeadowV"
        string_val: "NAmes"
        string_val: "OldTown"
        string_val: "NridgHt"
        string_val: "OldTown"
        string_val: "Blmngtn"
        string_val: "OldTown"
        string_val: "CollgCr"
        string_val: "Crawfor"
        string_val: "NAmes"
        string_val: "Somerst"
        string_val: "NAmes"
        string_val: "Crawfor"
        string_val: "Sawyer"
        string_val: "Gilbert"
        string_val: "NAmes"
        string_val: "SawyerW"
        string_val: "StoneBr"
        string_val: "Somerst"
        string_val: "SawyerW"
        string_val: "MeadowV"
        string_val: "Edwards"
        string_val: "SawyerW"
        string_val: "Gilbert"
        string_val: "NAmes"
        string_val: "NWAmes"
        string_val: "Gilbert"
        string_val: "BrkSide"
        string_val: "OldTown"
        string_val: "Gilbert"
        string_val: "Crawfor"
        string_val: "BrkSide"
        string_val: "NAmes"
        string_val: "MeadowV"
        string_val: "CollgCr"
        string_val: "Crawfor"
        string_val: "NAmes"
        string_val: "IDOTRR"
        string_val: "Crawfor"
        string_val: "NAmes"
        string_val: "Crawfor"
        string_val: "Edwards"
        string_val: "ClearCr"
        string_val: "StoneBr"
        string_val: "NoRidge"
        string_val: "Crawfor"
        string_val: "NoRidge"
        string_val: "NAmes"
        string_val: "IDOTRR"
        string_val: "Edwards"
        string_val: "Sawyer"
        string_val: "Sawyer"
        string_val: "BrkSide"
        string_val: "NridgHt"
        string_val: "NAmes"
        string_val: "IDOTRR"
        string_val: "NAmes"
        string_val: "Sawyer"
        string_val: "BrkSide"
        string_val: "Mitchel"
        string_val: "Somerst"
        string_val: "NWAmes"
        string_val: "Somerst"
        string_val: "NWAmes"
        string_val: "ClearCr"
        string_val: "NAmes"
        string_val: "SWISU"
        string_val: "Sawyer"
        string_val: "Gilbert"
        string_val: "CollgCr"
        string_val: "Crawfor"
        string_val: "CollgCr"
        string_val: "Somerst"
        string_val: "Mitchel"
        string_val: "Timber"
        string_val: "BrkSide"
        string_val: "Somerst"
        string_val: "Gilbert"
        string_val: "CollgCr"
        string_val: "Edwards"
        string_val: "Gilbert"
        string_val: "Sawyer"
        string_val: "Crawfor"
        string_val: "Veenker"
        string_val: "Edwards"
        string_val: "NAmes"
        string_val: "Somerst"
        string_val: "Gilbert"
        string_val: "NAmes"
        string_val: "CollgCr"
        string_val: "BrkSide"
        string_val: "NAmes"
        string_val: "OldTown"
        string_val: "NoRidge"
        string_val: "BrkSide"
        string_val: "Edwards"
        string_val: "CollgCr"
        string_val: "Crawfor"
        string_val: "SawyerW"
        string_val: "NridgHt"
        string_val: "NAmes"
        string_val: "NWAmes"
        string_val: "NridgHt"
        string_val: "NridgHt"
        string_val: "Sawyer"
        string_val: "NridgHt"
        string_val: "NAmes"
        string_val: "Edwards"
        string_val: "NWAmes"
        string_val: "NAmes"
        string_val: "MeadowV"
        string_val: "NWAmes"
        string_val: "IDOTRR"
        string_val: "Gilbert"
        string_val: "NAmes"
        string_val: "CollgCr"
        string_val: "SWISU"
        string_val: "NAmes"
        string_val: "Somerst"
        string_val: "OldTown"
        string_val: "CollgCr"
        string_val: "NWAmes"
        string_val: "CollgCr"
        string_val: "Crawfor"
        string_val: "Crawfor"
        string_val: "Timber"
        string_val: "StoneBr"
        string_val: "NridgHt"
        string_val: "Somerst"
        string_val: "Sawyer"
        string_val: "Somerst"
        string_val: "Edwards"
        string_val: "BrDale"
        string_val: "Crawfor"
        string_val: "NoRidge"
        string_val: "Sawyer"
        string_val: "Timber"
        string_val: "NAmes"
        string_val: "CollgCr"
        string_val: "Edwards"
        string_val: "Blmngtn"
        string_val: "IDOTRR"
        string_val: "Edwards"
        string_val: "NAmes"
        string_val: "OldTown"
        string_val: "Crawfor"
        string_val: "Edwards"
        string_val: "BrkSide"
        string_val: "SawyerW"
        string_val: "BrkSide"
        string_val: "BrkSide"
        string_val: "CollgCr"
        string_val: "NAmes"
        string_val: "Edwards"
        string_val: "NAmes"
        string_val: "IDOTRR"
        string_val: "Mitchel"
        string_val: "NAmes"
        string_val: "NWAmes"
        string_val: "Mitchel"
        string_val: "NAmes"
        string_val: "BrkSide"
        string_val: "Gilbert"
        string_val: "NoRidge"
        string_val: "Edwards"
        string_val: "StoneBr"
        string_val: "OldTown"
        string_val: "Sawyer"
        string_val: "NWAmes"
        string_val: "Edwards"
        string_val: "NAmes"
        string_val: "Timber"
        string_val: "Edwards"
        string_val: "NAmes"
        string_val: "Edwards"
        string_val: "Sawyer"
        string_val: "ClearCr"
        string_val: "NWAmes"
        string_val: "BrDale"
        string_val: "Somerst"
        string_val: "Somerst"
        string_val: "SawyerW"
        string_val: "CollgCr"
        string_val: "NWAmes"
        string_val: "Gilbert"
        string_val: "IDOTRR"
        string_val: "SawyerW"
        string_val: "NWAmes"
        string_val: "CollgCr"
        string_val: "Somerst"
        string_val: "Crawfor"
        string_val: "SWISU"
        string_val: "BrkSide"
        string_val: "Mitchel"
        string_val: "OldTown"
        string_val: "SWISU"
        string_val: "Sawyer"
        string_val: "Veenker"
        string_val: "CollgCr"
        string_val: "Edwards"
        string_val: "Edwards"
        string_val: "NAmes"
        string_val: "NridgHt"
        string_val: "Sawyer"
        string_val: "Sawyer"
        string_val: "SawyerW"
        string_val: "Blmngtn"
        string_val: "BrkSide"
        string_val: "CollgCr"
        string_val: "BrkSide"
        string_val: "NAmes"
        string_val: "Sawyer"
        string_val: "NAmes"
        string_val: "SWISU"
        string_val: "Sawyer"
        string_val: "SWISU"
        string_val: "NridgHt"
        string_val: "IDOTRR"
        string_val: "SawyerW"
        string_val: "Somerst"
        string_val: "Somerst"
        string_val: "NWAmes"
        string_val: "Mitchel"
        string_val: "NAmes"
        string_val: "NAmes"
        string_val: "StoneBr"
        string_val: "Edwards"
        string_val: "SawyerW"
        string_val: "Somerst"
        string_val: "Sawyer"
        string_val: "CollgCr"
        string_val: "StoneBr"
        string_val: "Gilbert"
        string_val: "Sawyer"
        string_val: "OldTown"
        string_val: "CollgCr"
        string_val: "NWAmes"
        string_val: "Mitchel"
        string_val: "StoneBr"
        string_val: "NWAmes"
        string_val: "BrkSide"
        string_val: "Gilbert"
        string_val: "IDOTRR"
        string_val: "SawyerW"
        string_val: "Blmngtn"
        string_val: "SawyerW"
        string_val: "Sawyer"
        string_val: "StoneBr"
        string_val: "NWAmes"
        string_val: "Edwards"
        string_val: "SWISU"
        string_val: "StoneBr"
        string_val: "OldTown"
        string_val: "Timber"
        string_val: "CollgCr"
        string_val: "NWAmes"
        string_val: "Edwards"
        string_val: "NWAmes"
        string_val: "Somerst"
        string_val: "NridgHt"
        string_val: "OldTown"
        string_val: "Gilbert"
        string_val: "Mitchel"
        string_val: "NAmes"
        string_val: "OldTown"
        string_val: "Sawyer"
        string_val: "NoRidge"
        string_val: "NPkVill"
        string_val: "NWAmes"
        string_val: "Timber"
        string_val: "BrDale"
        string_val: "NWAmes"
        string_val: "Veenker"
        string_val: "CollgCr"
        string_val: "BrkSide"
        string_val: "NridgHt"
        string_val: "NAmes"
        string_val: "Edwards"
        string_val: "NAmes"
        string_val: "NAmes"
        string_val: "Gilbert"
        string_val: "OldTown"
        string_val: "Edwards"
        string_val: "SawyerW"
        string_val: "Timber"
        string_val: "SWISU"
        string_val: "Blmngtn"
        string_val: "NridgHt"
        string_val: "OldTown"
        string_val: "Sawyer"
        string_val: "NWAmes"
        string_val: "Somerst"
        string_val: "NoRidge"
        string_val: "Mitchel"
        string_val: "Timber"
        string_val: "Crawfor"
        string_val: "NAmes"
        string_val: "NAmes"
        string_val: "CollgCr"
        string_val: "ClearCr"
        string_val: "NAmes"
        string_val: "BrDale"
        string_val: "NridgHt"
        string_val: "NoRidge"
        string_val: "OldTown"
        string_val: "Edwards"
        string_val: "BrDale"
        string_val: "CollgCr"
        string_val: "Edwards"
        string_val: "NridgHt"
        string_val: "CollgCr"
        string_val: "OldTown"
        string_val: "OldTown"
        string_val: "OldTown"
        string_val: "CollgCr"
        string_val: "Sawyer"
        string_val: "Somerst"
        string_val: "Gilbert"
        string_val: "CollgCr"
        string_val: "Edwards"
        string_val: "Crawfor"
        string_val: "NWAmes"
        string_val: "Gilbert"
        string_val: "NridgHt"
        string_val: "OldTown"
        string_val: "CollgCr"
        string_val: "OldTown"
        string_val: "IDOTRR"
        string_val: "Edwards"
        string_val: "NAmes"
        string_val: "CollgCr"
        string_val: "Gilbert"
        string_val: "Blmngtn"
        string_val: "OldTown"
        string_val: "Edwards"
        string_val: "Gilbert"
        string_val: "OldTown"
        string_val: "NAmes"
        string_val: "CollgCr"
        string_val: "Timber"
        string_val: "OldTown"
        string_val: "OldTown"
        string_val: "Sawyer"
        string_val: "Sawyer"
        string_val: "NWAmes"
        string_val: "Mitchel"
        string_val: "NAmes"
        string_val: "Somerst"
        string_val: "NridgHt"
        string_val: "OldTown"
        string_val: "NridgHt"
        string_val: "SWISU"
        string_val: "NAmes"
        string_val: "CollgCr"
        string_val: "Somerst"
        string_val: "NAmes"
        string_val: "Sawyer"
        string_val: "NAmes"
        string_val: "Somerst"
        string_val: "BrkSide"
        string_val: "NAmes"
        string_val: "CollgCr"
        string_val: "Edwards"
        string_val: "Mitchel"
        string_val: "OldTown"
        string_val: "Gilbert"
        string_val: "Edwards"
        string_val: "Somerst"
        string_val: "Edwards"
        string_val: "NAmes"
        string_val: "Sawyer"
        string_val: "SawyerW"
        string_val: "SawyerW"
        string_val: "Edwards"
        string_val: "Sawyer"
        string_val: "NridgHt"
        string_val: "NWAmes"
        string_val: "MeadowV"
        string_val: "CollgCr"
        string_val: "OldTown"
        string_val: "ClearCr"
        string_val: "CollgCr"
        string_val: "Sawyer"
        string_val: "NAmes"
        string_val: "Somerst"
        string_val: "NAmes"
        string_val: "Timber"
        string_val: "Crawfor"
        string_val: "Gilbert"
        string_val: "OldTown"
        string_val: "Mitchel"
        string_val: "OldTown"
        string_val: "Gilbert"
        string_val: "NAmes"
        string_val: "Edwards"
        string_val: "NAmes"
        string_val: "OldTown"
        string_val: "Veenker"
        string_val: "StoneBr"
        string_val: "CollgCr"
        string_val: "CollgCr"
        string_val: "Somerst"
        string_val: "CollgCr"
        string_val: "Crawfor"
        string_val: "CollgCr"
        string_val: "Sawyer"
        string_val: "BrkSide"
        string_val: "OldTown"
        string_val: "NridgHt"
        string_val: "OldTown"
        string_val: "Gilbert"
        string_val: "SawyerW"
        string_val: "Sawyer"
        string_val: "Timber"
        string_val: "BrkSide"
        string_val: "Mitchel"
        string_val: "BrDale"
        string_val: "BrkSide"
        string_val: "OldTown"
        string_val: "SawyerW"
        string_val: "CollgCr"
        string_val: "NAmes"
        string_val: "NAmes"
        string_val: "OldTown"
        string_val: "NAmes"
        string_val: "Crawfor"
        string_val: "CollgCr"
        string_val: "Blmngtn"
        string_val: "Crawfor"
        string_val: "Crawfor"
        string_val: "CollgCr"
        string_val: "OldTown"
        string_val: "Sawyer"
        string_val: "Edwards"
        string_val: "Mitchel"
        string_val: "NAmes"
        string_val: "NridgHt"
        string_val: "Sawyer"
        string_val: "SawyerW"
        string_val: "NAmes"
        string_val: "Mitchel"
        string_val: "OldTown"
        string_val: "NAmes"
        string_val: "CollgCr"
        string_val: "BrDale"
        string_val: "Mitchel"
        string_val: "Blmngtn"
        string_val: "NAmes"
        string_val: "SWISU"
        string_val: "SawyerW"
        string_val: "Edwards"
        string_val: "NAmes"
        string_val: "NridgHt"
        string_val: "SawyerW"
        string_val: "NWAmes"
        string_val: "CollgCr"
        string_val: "Timber"
        string_val: "Veenker"
        string_val: "NAmes"
        string_val: "OldTown"
        string_val: "Gilbert"
        string_val: "NAmes"
        string_val: "Sawyer"
        string_val: "NAmes"
        string_val: "Edwards"
        string_val: "ClearCr"
        string_val: "NAmes"
        string_val: "NAmes"
        string_val: "NAmes"
        string_val: "BrkSide"
        string_val: "SawyerW"
        string_val: "Timber"
        string_val: "Mitchel"
        string_val: "Timber"
        string_val: "OldTown"
        string_val: "SawyerW"
        string_val: "Somerst"
        string_val: "CollgCr"
        string_val: "NWAmes"
        string_val: "NWAmes"
        string_val: "Sawyer"
        string_val: "NoRidge"
        string_val: "IDOTRR"
        string_val: "NoRidge"
        string_val: "Somerst"
        string_val: "NridgHt"
        string_val: "NoRidge"
        string_val: "Edwards"
        string_val: "Crawfor"
        string_val: "Crawfor"
        string_val: "NAmes"
        string_val: "CollgCr"
        string_val: "CollgCr"
        string_val: "Edwards"
        string_val: "SawyerW"
        string_val: "BrkSide"
        string_val: "OldTown"
        string_val: "Edwards"
        string_val: "Timber"
        string_val: "CollgCr"
        string_val: "Edwards"
        string_val: "NridgHt"
        string_val: "NAmes"
        string_val: "NWAmes"
        string_val: "OldTown"
        string_val: "NAmes"
        string_val: "Somerst"
        string_val: "Edwards"
        string_val: "Sawyer"
        string_val: "CollgCr"
        string_val: "NAmes"
        string_val: "SawyerW"
        string_val: "IDOTRR"
        string_val: "Edwards"
        string_val: "Mitchel"
        string_val: "Mitchel"
        string_val: "NAmes"
        string_val: "NAmes"
        string_val: "Timber"
        string_val: "ClearCr"
        string_val: "Mitchel"
        string_val: "NAmes"
        string_val: "NWAmes"
        string_val: "BrkSide"
        string_val: "NAmes"
        string_val: "NAmes"
        string_val: "NAmes"
        string_val: "OldTown"
        string_val: "NAmes"
        string_val: "Gilbert"
        string_val: "ClearCr"
        string_val: "CollgCr"
        string_val: "OldTown"
        string_val: "NridgHt"
        string_val: "Somerst"
        string_val: "NAmes"
        string_val: "IDOTRR"
        string_val: "CollgCr"
        string_val: "Somerst"
        string_val: "Timber"
        string_val: "Gilbert"
        string_val: "Crawfor"
        string_val: "NPkVill"
        string_val: "Sawyer"
        string_val: "CollgCr"
        string_val: "StoneBr"
        string_val: "Gilbert"
        string_val: "NridgHt"
        string_val: "CollgCr"
        string_val: "NridgHt"
        string_val: "CollgCr"
        string_val: "Somerst"
        string_val: "Gilbert"
        string_val: "BrkSide"
        string_val: "NPkVill"
      }
    }
  }
}
node {
  name: "tensors/component_5"
  op: "Const"
  device: "/device:CPU:0"
  attr {
    key: "_output_shapes"
    value {
      list {
        shape {
          dim {
            size: 1200
          }
        }
      }
    }
  }
  attr {
    key: "dtype"
    value {
      type: DT_INT64
    }
  }
  attr {
    key: "value"
    value {
      tensor {
        dtype: DT_INT64
        tensor_shape {
          dim {
            size: 1200
          }
        }
        tensor_content: "…"
      }
    }
  }
}
node {
  name: "tensors/component_6"
  op: "Const"
  device: "/device:CPU:0"
  attr {
    key: "_output_shapes"
    value {
      list {
        shape {
          dim {
            size: 1200
          }
        }
      }
    }
  }
  attr {
    key: "dtype"
    value {
      type: DT_INT64
    }
  }
  attr {
    key: "value"
    value {
      tensor {
        dtype: DT_INT64
        tensor_shape {
          dim {
            size: 1200
          }
        }
        tensor_content: "…"
      }
    }
  }
}
node {
  name: "tensors/component_7"
  op: "Const"
  device: "/device:CPU:0"
  attr {
    key: "_output_shapes"
    value {
      list {
        shape {
          dim {
            size: 1200
          }
        }
      }
    }
  }
  attr {
    key: "dtype"
    value {
      type: DT_STRING
    }
  }
  attr {
    key: "value"
    value {
      tensor {
        dtype: DT_STRING
        tensor_shape {
          dim {
            size: 1200
          }
        }
        string_val: "Normal"
        string_val: "Normal"
        string_val: "Normal"
        string_val: "Normal"
        string_val: "Normal"
        string_val: "Abnorml"
        string_val: "Normal"
        string_val: "Normal"
        string_val: "Normal"
        string_val: "Alloca"
        string_val: "Normal"
        string_val: "Normal"
        string_val: "Normal"
        string_val: "Normal"
        string_val: "Normal"
        string_val: "Normal"
        string_val: "Normal"
        string_val: "Normal"
        string_val: "Normal"
        string_val: "Normal"
        string_val: "Normal"
        string_val: "Family"
        string_val: "Normal"
        string_val: "Normal"
        string_val: "Partial"
        string_val: "Normal"
        string_val: "Normal"
        string_val: "Abnorml"
        string_val: "Normal"
        string_val: "Normal"
        string_val: "Normal"
        string_val: "Normal"
        string_val: "Abnorml"
        string_val: "Normal"
        string_val: "Normal"
        string_val: "Normal"
        string_val: "Normal"
        string_val: "Abnorml"
        string_val: "Normal"
        string_val: "Normal"
        string_val: "Normal"
        string_val: "Normal"
        string_val: "Alloca"
        string_val: "Normal"
        string_val: "Normal"
        string_val: "Normal"
        string_val: "Normal"
        string_val: "Normal"
        string_val: "Normal"
        string_val: "Normal"
        string_val: "Normal"
        string_val: "Normal"
        string_val: "Normal"
        string_val: "Normal"
        string_val: "Partial"
        string_val: "Normal"
        string_val: "Normal"
        string_val: "Normal"
        string_val: "Partial"
        string_val: "Normal"
        string_val: "Normal"
        string_val: "Normal"
        string_val: "Normal"
        string_val: "Normal"
        string_val: "Normal"
        string_val: "Normal"
        string_val: "Normal"
        string_val: "Partial"
        string_val: "Normal"
        string_val: "Normal"
        string_val: "Normal"
        string_val: "Partial"
        string_val: "Normal"
        string_val: "Normal"
        string_val: "Normal"
        string_val: "Normal"
        string_val: "Abnorml"
        string_val: "Normal"
        string_val: "Normal"
        string_val: "Normal"
        string_val: "Normal"
        string_val: "Partial"
        string_val: "Normal"
        string_val: "Normal"
        string_val: "Normal"
        string_val: "Partial"
        string_val: "Normal"
        string_val: "Normal"
        string_val: "Normal"
        string_val: "Normal"
        string_val: "Normal"
        string_val: "Normal"
        string_val: "Normal"
        string_val: "Normal"
        string_val: "Normal"
        string_val: "Normal"
        string_val: "Partial"
        string_val: "Normal"
        string_val: "Normal"
        string_val: "Normal"
        string_val: "Normal"
        string_val: "Normal"
        string_val: "Normal"
        string_val: "Normal"
        string_val: "Normal"
        string_val: "Normal"
        string_val: "Partial"
        string_val: "Normal"
        string_val: "Normal"
        string_val: "Normal"
        string_val: "Abnorml"
        string_val: "Normal"
        string_val: "Normal"
        string_val: "Normal"
        string_val: "Normal"
        string_val: "Normal"
        string_val: "Normal"
        string_val: "Normal"
        string_val: "Normal"
        string_val: "Normal"
        string_val: "Normal"
        string_val: "Normal"
        string_val: "Normal"
        string_val: "Normal"
        string_val: "Abnorml"
        string_val: "Normal"
        string_val: "Normal"
        string_val: "AdjLand"
        string_val: "Normal"
        string_val: "Normal"
        string_val: "Normal"
        string_val: "Normal"
        string_val: "Normal"
        string_val: "Normal"
        string_val: "Normal"
        string_val: "Abnorml"
        string_val: "Normal"
        string_val: "Partial"
        string_val: "Normal"
        string_val: "Abnorml"
        string_val: "Normal"
        string_val: "Normal"
        string_val: "Normal"
        string_val: "Normal"
        string_val: "Normal"
        string_val: "Normal"
        string_val: "Partial"
        string_val: "Normal"
        string_val: "Partial"
        string_val: "Normal"
        string_val: "Normal"
        string_val: "Normal"
        string_val: "Normal"
        string_val: "Abnorml"
        string_val: "Normal"
        string_val: "Normal"
        string_val: "Normal"
        string_val: "Normal"
        string_val: "Normal"
        string_val: "Normal"
        string_val: "Partial"
        string_val: "Family"
        string_val: "Normal"
        string_val: "Normal"
        string_val: "Normal"
        string_val: "Normal"
        string_val: "Normal"
        string_val: "Normal"
        string_val: "Normal"
        string_val: "Normal"
        string_val: "Partial"
        string_val: "Normal"
        string_val: "Normal"
        string_val: "Normal"
        string_val: "Normal"
        string_val: "Abnorml"
        string_val: "Partial"
        string_val: "Normal"
        string_val: "Normal"
        string_val: "Abnorml"
        string_val: "Normal"
        string_val: "Normal"
        string_val: "Normal"
        string_val: "Normal"
        string_val: "Normal"
        string_val: "Normal"
        string_val: "Normal"
        string_val: "Normal"
        string_val: "Normal"
        string_val: "Normal"
        string_val: "Normal"
        string_val: "Normal"
        string_val: "Normal"
        string_val: "Normal"
        string_val: "Family"
        string_val: "Partial"
        string_val: "Normal"
        string_val: "Normal"
        string_val: "Normal"
        string_val: "Normal"
        string_val: "Normal"
        string_val: "Abnorml"
        string_val: "Abnorml"
        string_val: "Partial"
        string_val: "Normal"
        string_val: "Normal"
        string_val: "Normal"
        string_val: "Normal"
        string_val: "Normal"
        string_val: "Normal"
        string_val: "Normal"
        string_val: "Normal"
        string_val: "Abnorml"
        string_val: "Normal"
        string_val: "Normal"
        string_val: "Normal"
        string_val: "Normal"
        string_val: "Normal"
        string_val: "Normal"
        string_val: "Normal"
        string_val: "Normal"
        string_val: "Normal"
        string_val: "Family"
        string_val: "Normal"
        string_val: "Normal"
        string_val: "Abnorml"
        string_val: "Normal"
        string_val: "Normal"
        string_val: "Normal"
        string_val: "Normal"
        string_val: "Normal"
        string_val: "Normal"
        string_val: "Normal"
        string_val: "Abnorml"
        string_val: "Normal"
        string_val: "Normal"
        string_val: "Abnorml"
        string_val: "Normal"
        string_val: "Normal"
        string_val: "Normal"
        string_val: "Normal"
        string_val: "Normal"
        string_val: "Normal"
        string_val: "Normal"
        string_val: "Normal"
        string_val: "Abnorml"
        string_val: "Normal"
        string_val: "Normal"
        string_val: "Normal"
        string_val: "Normal"
        string_val: "Normal"
        string_val: "Abnorml"
        string_val: "Abnorml"
        string_val: "Normal"
        string_val: "Normal"
        string_val: "Normal"
        string_val: "Normal"
        string_val: "Family"
        string_val: "Normal"
        string_val: "Normal"
        string_val: "Normal"
        string_val: "Normal"
        string_val: "Alloca"
        string_val: "Normal"
        string_val: "Normal"
        string_val: "Normal"
        string_val: "Normal"
        string_val: "Abnorml"
        string_val: "Normal"
        string_val: "Normal"
        string_val: "Normal"
        string_val: "Normal"
        string_val: "Normal"
        string_val: "Normal"
        string_val: "Normal"
        string_val: "Normal"
        string_val: "Normal"
        string_val: "Normal"
        string_val: "Normal"
        string_val: "Normal"
        string_val: "Partial"
        string_val: "Normal"
        string_val: "Normal"
        string_val: "Abnorml"
        string_val: "Partial"
        string_val: "Normal"
        string_val: "Partial"
        string_val: "Normal"
        string_val: "Normal"
        string_val: "Normal"
        string_val: "Normal"
        string_val: "Normal"
        string_val: "Normal"
        string_val: "Normal"
        string_val: "Normal"
        string_val: "Normal"
        string_val: "Partial"
        string_val: "Normal"
        string_val: "Partial"
        string_val: "Normal"
        string_val: "Normal"
        string_val: "Normal"
        string_val: "Normal"
        string_val: "Normal"
        string_val: "Normal"
        string_val: "Normal"
        string_val: "Normal"
        string_val: "Normal"
        string_val: "Normal"
        string_val: "Normal"
        string_val: "Normal"
        string_val: "Normal"
        string_val: "Normal"
        string_val: "Normal"
        string_val: "Partial"
        string_val: "Normal"
        string_val: "Normal"
        string_val: "Normal"
        string_val: "Partial"
        string_val: "Normal"
        string_val: "Normal"
        string_val: "Normal"
        string_val: "Normal"
        string_val: "Normal"
        string_val: "Normal"
        string_val: "Normal"
        string_val: "Abnorml"
        string_val: "Normal"
        string_val: "Normal"
        string_val: "Normal"
        string_val: "Normal"
        string_val: "Normal"
        string_val: "Normal"
        string_val: "Normal"
        string_val: "Normal"
        string_val: "Abnorml"
        string_val: "Normal"
        string_val: "Normal"
        string_val: "Normal"
        string_val: "Normal"
        string_val: "Normal"
        string_val: "Normal"
        string_val: "Normal"
        string_val: "Abnorml"
        string_val: "Normal"
        string_val: "Normal"
        string_val: "Normal"
        string_val: "Normal"
        string_val: "Abnorml"
        string_val: "Normal"
        string_val: "Normal"
        string_val: "Normal"
        string_val: "Normal"
        string_val: "Normal"
        string_val: "Partial"
        string_val: "Normal"
        string_val: "Normal"
        string_val: "Normal"
        string_val: "Normal"
        string_val: "Abnorml"
        string_val: "Normal"
        string_val: "Normal"
        string_val: "Normal"
        string_val: "Normal"
        string_val: "Normal"
        string_val: "Partial"
        string_val: "Abnorml"
        string_val: "Normal"
        string_val: "Normal"
        string_val: "Normal"
        string_val: "Abnorml"
        string_val: "Normal"
        string_val: "Normal"
        string_val: "Normal"
        string_val: "Partial"
        string_val: "Abnorml"
        string_val: "Normal"
        string_val: "Normal"
        string_val: "Normal"
        string_val: "Normal"
        string_val: "Normal"
        string_val: "Normal"
        string_val: "Normal"
        string_val: "Normal"
        string_val: "Normal"
        string_val: "Normal"
        string_val: "Normal"
        string_val: "Normal"
        string_val: "Normal"
        string_val: "Normal"
        string_val: "Partial"
        string_val: "Normal"
        string_val: "Normal"
        string_val: "Normal"
        string_val: "Normal"
        string_val: "Normal"
        string_val: "Normal"
        string_val: "Partial"
        string_val: "Partial"
        string_val: "Normal"
        string_val: "Normal"
        string_val: "Normal"
        string_val: "Normal"
        string_val: "Abnorml"
        string_val: "Partial"
        string_val: "Normal"
        string_val: "Normal"
        string_val: "Normal"
        string_val: "Normal"
        string_val: "Normal"
        string_val: "Normal"
        string_val: "Normal"
        string_val: "Normal"
        string_val: "Normal"
        string_val: "Normal"
        string_val: "Normal"
        string_val: "Normal"
        string_val: "Normal"
        string_val: "Partial"
        string_val: "Normal"
        string_val: "Normal"
        string_val: "Normal"
        string_val: "Abnorml"
        string_val: "Normal"
        string_val: "Normal"
        string_val: "Normal"
        string_val: "Normal"
        string_val: "Normal"
        string_val: "Normal"
        string_val: "Normal"
        string_val: "Normal"
        string_val: "Normal"
        string_val: "Alloca"
        string_val: "Normal"
        string_val: "Abnorml"
        string_val: "Normal"
        string_val: "Normal"
        string_val: "Partial"
        string_val: "Normal"
        string_val: "Partial"
        string_val: "Normal"
        string_val: "Normal"
        string_val: "Abnorml"
        string_val: "Normal"
        string_val: "Partial"
        string_val: "Normal"
        string_val: "Partial"
        string_val: "Normal"
        string_val: "Abnorml"
        string_val: "Normal"
        string_val: "Abnorml"
        string_val: "Normal"
        string_val: "Family"
        string_val: "Normal"
        string_val: "Partial"
        string_val: "Normal"
        string_val: "Normal"
        string_val: "Normal"
        string_val: "Normal"
        string_val: "Normal"
        string_val: "Normal"
        string_val: "Normal"
        string_val: "Normal"
        string_val: "Normal"
        string_val: "Alloca"
        string_val: "Partial"
        string_val: "Partial"
        string_val: "Normal"
        string_val: "Normal"
        string_val: "Normal"
        string_val: "Normal"
        string_val: "Normal"
        string_val: "Normal"
        string_val: "Normal"
        string_val: "Normal"
        string_val: "Normal"
        string_val: "Normal"
        string_val: "Normal"
        string_val: "Normal"
        string_val: "Normal"
        string_val: "Normal"
        string_val: "Normal"
        string_val: "Normal"
        string_val: "Normal"
        string_val: "Normal"
        string_val: "Normal"
        string_val: "Normal"
        string_val: "Normal"
        string_val: "Normal"
        string_val: "Normal"
        string_val: "Normal"
        string_val: "Normal"
        string_val: "Normal"
        string_val: "Normal"
        string_val: "Partial"
        string_val: "Normal"
        string_val: "Family"
        string_val: "Normal"
        string_val: "Normal"
        string_val: "Abnorml"
        string_val: "Normal"
        string_val: "Normal"
        string_val: "Normal"
        string_val: "Normal"
        string_val: "Normal"
        string_val: "Normal"
        string_val: "Normal"
        string_val: "Normal"
        string_val: "Normal"
        string_val: "Normal"
        string_val: "Normal"
        string_val: "Normal"
        string_val: "Normal"
        string_val: "Normal"
        string_val: "Normal"
        string_val: "Normal"
        string_val: "Normal"
        string_val: "Normal"
        string_val: "Normal"
        string_val: "Normal"
        string_val: "Normal"
        string_val: "Normal"
        string_val: "Normal"
        string_val: "Normal"
        string_val: "Partial"
        string_val: "Normal"
        string_val: "Normal"
        string_val: "Normal"
        string_val: "Normal"
        string_val: "Normal"
        string_val: "Normal"
        string_val: "Normal"
        string_val: "Partial"
        string_val: "Partial"
        string_val: "Normal"
        string_val: "Normal"
        string_val: "Partial"
        string_val: "Normal"
        string_val: "Normal"
        string_val: "Normal"
        string_val: "Partial"
        string_val: "Normal"
        string_val: "Normal"
        string_val: "Normal"
        string_val: "Normal"
        string_val: "Normal"
        string_val: "Normal"
        string_val: "Normal"
        string_val: "Normal"
        string_val: "Family"
        string_val: "Normal"
        string_val: "Abnorml"
        string_val: "Normal"
        string_val: "Normal"
        string_val: "Normal"
        string_val: "Normal"
        string_val: "Normal"
        string_val: "Normal"
        string_val: "Normal"
        string_val: "Normal"
        string_val: "Partial"
        string_val: "Partial"
        string_val: "Normal"
        string_val: "Partial"
        string_val: "Normal"
        string_val: "Normal"
        string_val: "Partial"
        string_val: "Normal"
        string_val: "Normal"
        string_val: "Normal"
        string_val: "Normal"
        string_val: "Normal"
        string_val: "Normal"
        string_val: "Normal"
        string_val: "Normal"
        string_val: "Normal"
        string_val: "Normal"
        string_val: "Normal"
        string_val: "Normal"
        string_val: "Normal"
        string_val: "Normal"
        string_val: "Normal"
        string_val: "Normal"
        string_val: "Normal"
        string_val: "Abnorml"
        string_val: "Normal"
        string_val: "Normal"
        string_val: "Normal"
        string_val: "Normal"
        string_val: "Normal"
        string_val: "Normal"
        string_val: "Normal"
        string_val: "Normal"
        string_val: "Normal"
        string_val: "Normal"
        string_val: "Normal"
        string_val: "Normal"
        string_val: "Normal"
        string_val: "Partial"
        string_val: "Normal"
        string_val: "Normal"
        string_val: "Normal"
        string_val: "Normal"
        string_val: "Normal"
        string_val: "Normal"
        string_val: "Normal"
        string_val: "Normal"
        string_val: "Normal"
        string_val: "Normal"
        string_val: "Normal"
        string_val: "Normal"
        string_val: "Normal"
        string_val: "Normal"
        string_val: "Normal"
        string_val: "Partial"
        string_val: "Abnorml"
        string_val: "Normal"
        string_val: "Normal"
        string_val: "Normal"
        string_val: "Normal"
        string_val: "Normal"
        string_val: "Normal"
        string_val: "Abnorml"
        string_val: "Normal"
        string_val: "Normal"
        string_val: "Partial"
        string_val: "Normal"
        string_val: "Normal"
        string_val: "Partial"
        string_val: "Normal"
        string_val: "Normal"
        string_val: "Partial"
        string_val: "Normal"
        string_val: "Partial"
        string_val: "Normal"
        string_val: "Normal"
        string_val: "Normal"
        string_val: "Partial"
        string_val: "Normal"
        string_val: "Normal"
        string_val: "Normal"
        string_val: "Normal"
        string_val: "Abnorml"
        string_val: "Normal"
        string_val: "Normal"
        string_val: "Normal"
        string_val: "Normal"
        string_val: "Normal"
        string_val: "Normal"
        string_val: "Normal"
        string_val: "Partial"
        string_val: "Normal"
        string_val: "Normal"
        string_val: "Normal"
        string_val: "Normal"
        string_val: "Normal"
        string_val: "Normal"
        string_val: "Family"
        string_val: "Normal"
        string_val: "Normal"
        string_val: "Normal"
        string_val: "Normal"
        string_val: "Normal"
        string_val: "Normal"
        string_val: "Normal"
        string_val: "Normal"
        string_val: "Normal"
        string_val: "Alloca"
        string_val: "Normal"
        string_val: "Normal"
        string_val: "Normal"
        string_val: "Partial"
        string_val: "Normal"
        string_val: "Normal"
        string_val: "Normal"
        string_val: "Partial"
        string_val: "Normal"
        string_val: "Normal"
        string_val: "Normal"
        string_val: "Normal"
        string_val: "Normal"
        string_val: "Normal"
        string_val: "Normal"
        string_val: "Normal"
        string_val: "Normal"
        string_val: "Normal"
        string_val: "Normal"
        string_val: "Normal"
        string_val: "Normal"
        string_val: "Normal"
        string_val: "Normal"
        string_val: "Normal"
        string_val: "Normal"
        string_val: "Normal"
        string_val: "Normal"
        string_val: "Normal"
        string_val: "Normal"
        string_val: "Normal"
        string_val: "Partial"
        string_val: "Abnorml"
        string_val: "Abnorml"
        string_val: "Normal"
        string_val: "Abnorml"
        string_val: "Normal"
        string_val: "Normal"
        string_val: "Normal"
        string_val: "Normal"
        string_val: "Normal"
        string_val: "Normal"
        string_val: "Partial"
        string_val: "Normal"
        string_val: "Normal"
        string_val: "Normal"
        string_val: "Normal"
        string_val: "Normal"
        string_val: "Normal"
        string_val: "Partial"
        string_val: "Normal"
        string_val: "Normal"
        string_val: "Partial"
        string_val: "Normal"
        string_val: "Normal"
        string_val: "Normal"
        string_val: "Normal"
        string_val: "Partial"
        string_val: "Normal"
        string_val: "Normal"
        string_val: "Normal"
        string_val: "Normal"
        string_val: "Normal"
        string_val: "Normal"
        string_val: "Normal"
        string_val: "Abnorml"
        string_val: "Normal"
        string_val: "Normal"
        string_val: "Abnorml"
        string_val: "Normal"
        string_val: "Normal"
        string_val: "Normal"
        string_val: "Normal"
        string_val: "Normal"
        string_val: "Normal"
        string_val: "Normal"
        string_val: "Normal"
        string_val: "Normal"
        string_val: "Normal"
        string_val: "Normal"
        string_val: "Normal"
        string_val: "Normal"
        string_val: "Normal"
        string_val: "Normal"
        string_val: "Normal"
        string_val: "Normal"
        string_val: "Abnorml"
        string_val: "Abnorml"
        string_val: "Normal"
        string_val: "Normal"
        string_val: "Normal"
        string_val: "Normal"
        string_val: "Normal"
        string_val: "Partial"
        string_val: "Normal"
        string_val: "Normal"
        string_val: "Partial"
        string_val: "Normal"
        string_val: "Partial"
        string_val: "Normal"
        string_val: "Normal"
        string_val: "Alloca"
        string_val: "Normal"
        string_val: "Normal"
        string_val: "Normal"
        string_val: "Partial"
        string_val: "Partial"
        string_val: "Normal"
        string_val: "Normal"
        string_val: "Normal"
        string_val: "Normal"
        string_val: "Normal"
        string_val: "Abnorml"
        string_val: "Normal"
        string_val: "Normal"
        string_val: "Normal"
        string_val: "Normal"
        string_val: "Normal"
        string_val: "Partial"
        string_val: "Abnorml"
        string_val: "Normal"
        string_val: "Normal"
        string_val: "Normal"
        string_val: "Normal"
        string_val: "Normal"
        string_val: "Normal"
        string_val: "Normal"
        string_val: "Normal"
        string_val: "Normal"
        string_val: "Normal"
        string_val: "Normal"
        string_val: "Normal"
        string_val: "Normal"
        string_val: "Normal"
        string_val: "Normal"
        string_val: "Normal"
        string_val: "Normal"
        string_val: "Normal"
        string_val: "Normal"
        string_val: "Normal"
        string_val: "Normal"
        string_val: "Normal"
        string_val: "Normal"
        string_val: "Partial"
        string_val: "Normal"
        string_val: "Normal"
        string_val: "Normal"
        string_val: "Normal"
        string_val: "Normal"
        string_val: "Normal"
        string_val: "Normal"
        string_val: "Normal"
        string_val: "Normal"
        string_val: "Normal"
        string_val: "Abnorml"
        string_val: "Normal"
        string_val: "Family"
        string_val: "Normal"
        string_val: "Normal"
        string_val: "Normal"
        string_val: "Partial"
        string_val: "Normal"
        string_val: "Normal"
        string_val: "Normal"
        string_val: "Normal"
        string_val: "Normal"
        string_val: "Normal"
        string_val: "Normal"
        string_val: "Normal"
        string_val: "Normal"
        string_val: "Normal"
        string_val: "Normal"
        string_val: "Normal"
        string_val: "Abnorml"
        string_val: "Normal"
        string_val: "Normal"
        string_val: "Normal"
        string_val: "Normal"
        string_val: "AdjLand"
        string_val: "Normal"
        string_val: "Normal"
        string_val: "Normal"
        string_val: "Normal"
        string_val: "Normal"
        string_val: "Normal"
        string_val: "Normal"
        string_val: "Normal"
        string_val: "Normal"
        string_val: "Normal"
        string_val: "Normal"
        string_val: "Abnorml"
        string_val: "Normal"
        string_val: "Normal"
        string_val: "Abnorml"
        string_val: "Normal"
        string_val: "Normal"
        string_val: "Normal"
        string_val: "Partial"
        string_val: "Partial"
        string_val: "Normal"
        string_val: "Normal"
        string_val: "Normal"
        string_val: "Abnorml"
        string_val: "Normal"
        string_val: "Normal"
        string_val: "Normal"
        string_val: "Partial"
        string_val: "Normal"
        string_val: "Normal"
        string_val: "Partial"
        string_val: "Normal"
        string_val: "Normal"
        string_val: "Normal"
        string_val: "Normal"
        string_val: "Normal"
        string_val: "Normal"
        string_val: "Normal"
        string_val: "Normal"
        string_val: "Normal"
        string_val: "Normal"
        string_val: "Normal"
        string_val: "Normal"
        string_val: "Normal"
        string_val: "Abnorml"
        string_val: "Abnorml"
        string_val: "Normal"
        string_val: "Normal"
        string_val: "Normal"
        string_val: "Normal"
        string_val: "Partial"
        string_val: "Normal"
        string_val: "Partial"
        string_val: "Partial"
        string_val: "Normal"
        string_val: "Normal"
        string_val: "Normal"
        string_val: "Partial"
        string_val: "Partial"
        string_val: "Normal"
        string_val: "Normal"
        string_val: "Normal"
        string_val: "Normal"
        string_val: "Normal"
        string_val: "Normal"
        string_val: "Normal"
        string_val: "Normal"
        string_val: "Normal"
        string_val: "Partial"
        string_val: "Normal"
        string_val: "Normal"
        string_val: "Normal"
        string_val: "Normal"
        string_val: "Normal"
        string_val: "Normal"
        string_val: "Normal"
        string_val: "Normal"
        string_val: "Abnorml"
        string_val: "Normal"
        string_val: "Normal"
        string_val: "Normal"
        string_val: "Normal"
        string_val: "Normal"
        string_val: "Abnorml"
        string_val: "Normal"
        string_val: "Normal"
        string_val: "Normal"
        string_val: "Normal"
        string_val: "Normal"
        string_val: "Normal"
        string_val: "Normal"
        string_val: "Normal"
        string_val: "Normal"
        string_val: "Normal"
        string_val: "Normal"
        string_val: "Normal"
        string_val: "Abnorml"
        string_val: "Normal"
        string_val: "Normal"
        string_val: "Normal"
        string_val: "Normal"
        string_val: "Partial"
        string_val: "Normal"
        string_val: "Normal"
        string_val: "Normal"
        string_val: "Normal"
        string_val: "Normal"
        string_val: "Normal"
        string_val: "Partial"
        string_val: "Normal"
        string_val: "Normal"
        string_val: "Normal"
        string_val: "Normal"
        string_val: "Normal"
        string_val: "Normal"
        string_val: "Normal"
        string_val: "Normal"
        string_val: "Partial"
        string_val: "Normal"
        string_val: "Normal"
        string_val: "Abnorml"
        string_val: "Normal"
        string_val: "Normal"
        string_val: "Normal"
        string_val: "Normal"
        string_val: "Normal"
        string_val: "Normal"
        string_val: "Partial"
        string_val: "Normal"
        string_val: "Normal"
        string_val: "Normal"
        string_val: "Normal"
        string_val: "Normal"
        string_val: "Normal"
        string_val: "Normal"
        string_val: "Normal"
        string_val: "Abnorml"
        string_val: "Partial"
        string_val: "Normal"
        string_val: "Normal"
        string_val: "Normal"
        string_val: "Normal"
        string_val: "Normal"
        string_val: "Normal"
        string_val: "Abnorml"
        string_val: "Abnorml"
        string_val: "Normal"
        string_val: "Partial"
        string_val: "Normal"
        string_val: "Normal"
        string_val: "Normal"
        string_val: "Normal"
        string_val: "Normal"
        string_val: "Normal"
        string_val: "Normal"
        string_val: "Normal"
        string_val: "Normal"
        string_val: "Partial"
        string_val: "Normal"
        string_val: "Normal"
        string_val: "Normal"
        string_val: "Alloca"
        string_val: "Normal"
        string_val: "Normal"
        string_val: "Normal"
        string_val: "AdjLand"
        string_val: "Normal"
        string_val: "Normal"
        string_val: "Normal"
        string_val: "Normal"
        string_val: "Normal"
        string_val: "Normal"
        string_val: "Normal"
        string_val: "Abnorml"
        string_val: "Normal"
        string_val: "Abnorml"
        string_val: "Normal"
        string_val: "Normal"
        string_val: "Normal"
        string_val: "Normal"
        string_val: "Partial"
        string_val: "Normal"
        string_val: "Normal"
        string_val: "Partial"
        string_val: "Normal"
        string_val: "Normal"
        string_val: "Normal"
        string_val: "Partial"
        string_val: "Normal"
        string_val: "Normal"
        string_val: "Abnorml"
        string_val: "Normal"
        string_val: "Normal"
        string_val: "Normal"
        string_val: "Normal"
        string_val: "Normal"
        string_val: "Normal"
        string_val: "Partial"
        string_val: "Normal"
        string_val: "Abnorml"
        string_val: "Normal"
        string_val: "Normal"
        string_val: "Normal"
        string_val: "Normal"
        string_val: "Normal"
        string_val: "Normal"
        string_val: "Normal"
        string_val: "Partial"
        string_val: "Normal"
        string_val: "Family"
        string_val: "Normal"
        string_val: "Normal"
        string_val: "Normal"
        string_val: "Normal"
        string_val: "Normal"
        string_val: "Normal"
        string_val: "Normal"
        string_val: "Abnorml"
        string_val: "Normal"
        string_val: "Normal"
        string_val: "Normal"
        string_val: "Normal"
        string_val: "Normal"
        string_val: "Normal"
        string_val: "Abnorml"
        string_val: "Normal"
        string_val: "Normal"
        string_val: "Normal"
        string_val: "Normal"
        string_val: "Normal"
        string_val: "Normal"
        string_val: "Normal"
        string_val: "Alloca"
        string_val: "Normal"
        string_val: "Normal"
        string_val: "Normal"
        string_val: "Normal"
        string_val: "Normal"
        string_val: "Normal"
        string_val: "Normal"
        string_val: "Normal"
        string_val: "Normal"
        string_val: "Normal"
        string_val: "Abnorml"
        string_val: "Partial"
        string_val: "Partial"
        string_val: "Normal"
        string_val: "Abnorml"
        string_val: "Normal"
        string_val: "Normal"
        string_val: "Normal"
        string_val: "Normal"
        string_val: "Normal"
        string_val: "Family"
        string_val: "Normal"
        string_val: "Normal"
        string_val: "Normal"
        string_val: "Normal"
        string_val: "Normal"
        string_val: "Normal"
        string_val: "Abnorml"
        string_val: "Family"
        string_val: "Family"
        string_val: "Normal"
        string_val: "Normal"
        string_val: "Normal"
        string_val: "Abnorml"
        string_val: "Normal"
        string_val: "Normal"
        string_val: "Alloca"
        string_val: "Normal"
        string_val: "Family"
        string_val: "Abnorml"
        string_val: "Normal"
        string_val: "Normal"
        string_val: "Partial"
        string_val: "Normal"
        string_val: "Normal"
        string_val: "Normal"
        string_val: "Normal"
        string_val: "Normal"
        string_val: "Abnorml"
        string_val: "Normal"
        string_val: "Abnorml"
        string_val: "Normal"
        string_val: "Abnorml"
        string_val: "Normal"
        string_val: "Normal"
        string_val: "Normal"
        string_val: "Normal"
        string_val: "Normal"
        string_val: "Normal"
        string_val: "Normal"
        string_val: "Normal"
        string_val: "Normal"
        string_val: "Normal"
        string_val: "Abnorml"
        string_val: "Partial"
        string_val: "Normal"
        string_val: "Normal"
        string_val: "Normal"
        string_val: "Normal"
        string_val: "Normal"
        string_val: "Normal"
        string_val: "Normal"
        string_val: "Normal"
        string_val: "Normal"
        string_val: "Normal"
        string_val: "Partial"
        string_val: "Normal"
        string_val: "Normal"
        string_val: "Normal"
        string_val: "Normal"
        string_val: "Alloca"
        string_val: "Abnorml"
        string_val: "Normal"
        string_val: "Normal"
        string_val: "Partial"
        string_val: "Abnorml"
        string_val: "Family"
        string_val: "Normal"
        string_val: "Normal"
        string_val: "Normal"
        string_val: "Normal"
        string_val: "Normal"
        string_val: "Normal"
        string_val: "Normal"
        string_val: "Normal"
        string_val: "Family"
        string_val: "Normal"
        string_val: "Partial"
        string_val: "Normal"
        string_val: "Partial"
        string_val: "Normal"
        string_val: "Normal"
        string_val: "Abnorml"
        string_val: "Normal"
        string_val: "Partial"
        string_val: "Normal"
        string_val: "Normal"
        string_val: "Abnorml"
        string_val: "Normal"
        string_val: "Normal"
        string_val: "Normal"
        string_val: "Normal"
        string_val: "Normal"
        string_val: "Normal"
        string_val: "Normal"
        string_val: "Normal"
        string_val: "Normal"
        string_val: "Normal"
        string_val: "Normal"
        string_val: "Normal"
        string_val: "Normal"
      }
    }
  }
}
node {
  name: "tensors/component_8"
  op: "Const"
  device: "/device:CPU:0"
  attr {
    key: "_output_shapes"
    value {
      list {
        shape {
          dim {
            size: 1200
          }
        }
      }
    }
  }
  attr {
    key: "dtype"
    value {
      type: DT_INT64
    }
  }
  attr {
    key: "value"
    value {
      tensor {
        dtype: DT_INT64
        tensor_shape {
          dim {
            size: 1200
          }
        }
        tensor_content: "…"
      }
    }
  }
}
node {
  name: "tensors/component_9"
  op: "Const"
  device: "/device:CPU:0"
  attr {
    key: "_output_shapes"
    value {
      list {
        shape {
          dim {
            size: 1200
          }
        }
      }
    }
  }
  attr {
    key: "dtype"
    value {
      type: DT_INT64
    }
  }
  attr {
    key: "value"
    value {
      tensor {
        dtype: DT_INT64
        tensor_shape {
          dim {
            size: 1200
          }
        }
        tensor_content: "…"
      }
    }
  }
}
node {
  name: "tensors/component_10"
  op: "Const"
  device: "/device:CPU:0"
  attr {
    key: "_output_shapes"
…
            string_val: "Timber"
            string_val: "Gilbert"
            string_val: "Crawfor"
            string_val: "NPkVill"
            string_val: "Sawyer"
            string_val: "CollgCr"
            string_val: "StoneBr"
            string_val: "Gilbert"
            string_val: "NridgHt"
            string_val: "CollgCr"
            string_val: "NridgHt"
            string_val: "CollgCr"
            string_val: "Somerst"
            string_val: "Gilbert"
            string_val: "BrkSide"
            string_val: "NPkVill"
          }
        }
      }
    }
    node_def {
      name: "TensorSliceDataset/tensors/component_5"
      op: "Const"
      device: "/device:CPU:0"
      attr {
        key: "dtype"
        value {
          type: DT_INT64
        }
      }
      attr {
        key: "value"
        value {
          tensor {
            dtype: DT_INT64
            tensor_shape {
              dim {
                size: 1200
              }
            }
            tensor_content: "…"
          }
        }
      }
    }
    node_def {
      name: "TensorSliceDataset/tensors/component_6"
      op: "Const"
      device: "/device:CPU:0"
      attr {
        key: "dtype"
        value {
          type: DT_INT64
        }
      }
      attr {
        key: "value"
        value {
          tensor {
            dtype: DT_INT64
            tensor_shape {
              dim {
                size: 1200
              }
            }
            tensor_content: "…"
          }
        }
      }
    }
    node_def {
      name: "TensorSliceDataset/tensors/component_7"
      op: "Const"
      device: "/device:CPU:0"
      attr {
        key: "dtype"
        value {
          type: DT_STRING
        }
      }
      attr {
        key: "value"
        value {
          tensor {
            dtype: DT_STRING
            tensor_shape {
              dim {
                size: 1200
              }
            }
            string_val: "Normal"
            string_val: "Normal"
            string_val: "Normal"
            string_val: "Normal"
            string_val: "Normal"
            string_val: "Abnorml"
            string_val: "Normal"
            string_val: "Normal"
            string_val: "Normal"
            string_val: "Alloca"
            string_val: "Normal"
            string_val: "Normal"
            string_val: "Normal"
            string_val: "Normal"
            string_val: "Normal"
            string_val: "Normal"
            string_val: "Normal"
            string_val: "Normal"
            string_val: "Normal"
            string_val: "Normal"
            string_val: "Normal"
            string_val: "Family"
            string_val: "Normal"
            string_val: "Normal"
            string_val: "Partial"
            string_val: "Normal"
            string_val: "Normal"
            string_val: "Abnorml"
            string_val: "Normal"
            string_val: "Normal"
            string_val: "Normal"
            string_val: "Normal"
            string_val: "Abnorml"
            string_val: "Normal"
            string_val: "Normal"
            string_val: "Normal"
            string_val: "Normal"
            string_val: "Abnorml"
            string_val: "Normal"
            string_val: "Normal"
            string_val: "Normal"
            string_val: "Normal"
            string_val: "Alloca"
            string_val: "Normal"
            string_val: "Normal"
            string_val: "Normal"
            string_val: "Normal"
            string_val: "Normal"
            string_val: "Normal"
            string_val: "Normal"
            string_val: "Normal"
            string_val: "Normal"
            string_val: "Normal"
            string_val: "Normal"
            string_val: "Partial"
            string_val: "Normal"
            string_val: "Normal"
            string_val: "Normal"
            string_val: "Partial"
            string_val: "Normal"
            string_val: "Normal"
            string_val: "Normal"
            string_val: "Normal"
            string_val: "Normal"
            string_val: "Normal"
            string_val: "Normal"
            string_val: "Normal"
            string_val: "Partial"
            string_val: "Normal"
            string_val: "Normal"
            string_val: "Normal"
            string_val: "Partial"
            string_val: "Normal"
            string_val: "Normal"
            string_val: "Normal"
            string_val: "Normal"
            string_val: "Abnorml"
            string_val: "Normal"
            string_val: "Normal"
            string_val: "Normal"
            string_val: "Normal"
            string_val: "Partial"
            string_val: "Normal"
            string_val: "Normal"
            string_val: "Normal"
            string_val: "Partial"
            string_val: "Normal"
            string_val: "Normal"
            string_val: "Normal"
            string_val: "Normal"
            string_val: "Normal"
            string_val: "Normal"
            string_val: "Normal"
            string_val: "Normal"
            string_val: "Normal"
            string_val: "Normal"
            string_val: "Partial"
            string_val: "Normal"
            string_val: "Normal"
            string_val: "Normal"
            string_val: "Normal"
            string_val: "Normal"
            string_val: "Normal"
            string_val: "Normal"
            string_val: "Normal"
            string_val: "Normal"
            string_val: "Partial"
            string_val: "Normal"
            string_val: "Normal"
            string_val: "Normal"
            string_val: "Abnorml"
            string_val: "Normal"
            string_val: "Normal"
            string_val: "Normal"
            string_val: "Normal"
            string_val: "Normal"
            string_val: "Normal"
            string_val: "Normal"
            string_val: "Normal"
            string_val: "Normal"
            string_val: "Normal"
            string_val: "Normal"
            string_val: "Normal"
            string_val: "Normal"
            string_val: "Abnorml"
            string_val: "Normal"
            string_val: "Normal"
            string_val: "AdjLand"
            string_val: "Normal"
            string_val: "Normal"
            string_val: "Normal"
            string_val: "Normal"
            string_val: "Normal"
            string_val: "Normal"
            string_val: "Normal"
            string_val: "Abnorml"
            string_val: "Normal"
            string_val: "Partial"
            string_val: "Normal"
            string_val: "Abnorml"
            string_val: "Normal"
            string_val: "Normal"
            string_val: "Normal"
            string_val: "Normal"
            string_val: "Normal"
            string_val: "Normal"
            string_val: "Partial"
            string_val: "Normal"
            string_val: "Partial"
            string_val: "Normal"
            string_val: "Normal"
            string_val: "Normal"
            string_val: "Normal"
            string_val: "Abnorml"
            string_val: "Normal"
            string_val: "Normal"
            string_val: "Normal"
            string_val: "Normal"
            string_val: "Normal"
            string_val: "Normal"
            string_val: "Partial"
            string_val: "Family"
            string_val: "Normal"
            string_val: "Normal"
            string_val: "Normal"
            string_val: "Normal"
            string_val: "Normal"
            string_val: "Normal"
            string_val: "Normal"
            string_val: "Normal"
            string_val: "Partial"
            string_val: "Normal"
            string_val: "Normal"
            string_val: "Normal"
            string_val: "Normal"
            string_val: "Abnorml"
            string_val: "Partial"
            string_val: "Normal"
            string_val: "Normal"
            string_val: "Abnorml"
            string_val: "Normal"
            string_val: "Normal"
            string_val: "Normal"
            string_val: "Normal"
            string_val: "Normal"
            string_val: "Normal"
            string_val: "Normal"
            string_val: "Normal"
            string_val: "Normal"
            string_val: "Normal"
            string_val: "Normal"
            string_val: "Normal"
            string_val: "Normal"
            string_val: "Normal"
            string_val: "Family"
            string_val: "Partial"
            string_val: "Normal"
            string_val: "Normal"
            string_val: "Normal"
            string_val: "Normal"
            string_val: "Normal"
            string_val: "Abnorml"
            string_val: "Abnorml"
            string_val: "Partial"
            string_val: "Normal"
            string_val: "Normal"
            string_val: "Normal"
            string_val: "Normal"
            string_val: "Normal"
            string_val: "Normal"
            string_val: "Normal"
            string_val: "Normal"
            string_val: "Abnorml"
            string_val: "Normal"
            string_val: "Normal"
            string_val: "Normal"
            string_val: "Normal"
            string_val: "Normal"
            string_val: "Normal"
            string_val: "Normal"
            string_val: "Normal"
            string_val: "Normal"
            string_val: "Family"
            string_val: "Normal"
            string_val: "Normal"
            string_val: "Abnorml"
            string_val: "Normal"
            string_val: "Normal"
            string_val: "Normal"
            string_val: "Normal"
            string_val: "Normal"
            string_val: "Normal"
            string_val: "Normal"
            string_val: "Abnorml"
            string_val: "Normal"
            string_val: "Normal"
            string_val: "Abnorml"
            string_val: "Normal"
            string_val: "Normal"
            string_val: "Normal"
            string_val: "Normal"
            string_val: "Normal"
            string_val: "Normal"
            string_val: "Normal"
            string_val: "Normal"
            string_val: "Abnorml"
            string_val: "Normal"
            string_val: "Normal"
            string_val: "Normal"
            string_val: "Normal"
            string_val: "Normal"
            string_val: "Abnorml"
            string_val: "Abnorml"
            string_val: "Normal"
            string_val: "Normal"
            string_val: "Normal"
            string_val: "Normal"
            string_val: "Family"
            string_val: "Normal"
            string_val: "Normal"
            string_val: "Normal"
            string_val: "Normal"
            string_val: "Alloca"
            string_val: "Normal"
            string_val: "Normal"
            string_val: "Normal"
            string_val: "Normal"
            string_val: "Abnorml"
            string_val: "Normal"
            string_val: "Normal"
            string_val: "Normal"
            string_val: "Normal"
            string_val: "Normal"
            string_val: "Normal"
            string_val: "Normal"
            string_val: "Normal"
            string_val: "Normal"
            string_val: "Normal"
            string_val: "Normal"
            string_val: "Normal"
            string_val: "Partial"
            string_val: "Normal"
            string_val: "Normal"
            string_val: "Abnorml"
            string_val: "Partial"
            string_val: "Normal"
            string_val: "Partial"
            string_val: "Normal"
            string_val: "Normal"
            string_val: "Normal"
            string_val: "Normal"
            string_val: "Normal"
            string_val: "Normal"
            string_val: "Normal"
            string_val: "Normal"
            string_val: "Normal"
            string_val: "Partial"
            string_val: "Normal"
            string_val: "Partial"
            string_val: "Normal"
            string_val: "Normal"
            string_val: "Normal"
            string_val: "Normal"
            string_val: "Normal"
            string_val: "Normal"
            string_val: "Normal"
            string_val: "Normal"
            string_val: "Normal"
            string_val: "Normal"
            string_val: "Normal"
            string_val: "Normal"
            string_val: "Normal"
            string_val: "Normal"
            string_val: "Normal"
            string_val: "Partial"
            string_val: "Normal"
            string_val: "Normal"
            string_val: "Normal"
            string_val: "Partial"
            string_val: "Normal"
            string_val: "Normal"
            string_val: "Normal"
            string_val: "Normal"
            string_val: "Normal"
            string_val: "Normal"
            string_val: "Normal"
            string_val: "Abnorml"
            string_val: "Normal"
            string_val: "Normal"
            string_val: "Normal"
            string_val: "Normal"
            string_val: "Normal"
            string_val: "Normal"
            string_val: "Normal"
            string_val: "Normal"
            string_val: "Abnorml"
            string_val: "Normal"
            string_val: "Normal"
            string_val: "Normal"
            string_val: "Normal"
            string_val: "Normal"
            string_val: "Normal"
            string_val: "Normal"
            string_val: "Abnorml"
            string_val: "Normal"
            string_val: "Normal"
            string_val: "Normal"
            string_val: "Normal"
            string_val: "Abnorml"
            string_val: "Normal"
            string_val: "Normal"
            string_val: "Normal"
            string_val: "Normal"
            string_val: "Normal"
            string_val: "Partial"
            string_val: "Normal"
            string_val: "Normal"
            string_val: "Normal"
            string_val: "Normal"
            string_val: "Abnorml"
            string_val: "Normal"
            string_val: "Normal"
            string_val: "Normal"
            string_val: "Normal"
            string_val: "Normal"
            string_val: "Partial"
            string_val: "Abnorml"
            string_val: "Normal"
            string_val: "Normal"
            string_val: "Normal"
            string_val: "Abnorml"
            string_val: "Normal"
            string_val: "Normal"
            string_val: "Normal"
            string_val: "Partial"
            string_val: "Abnorml"
            string_val: "Normal"
            string_val: "Normal"
            string_val: "Normal"
            string_val: "Normal"
            string_val: "Normal"
            string_val: "Normal"
            string_val: "Normal"
            string_val: "Normal"
            string_val: "Normal"
            string_val: "Normal"
            string_val: "Normal"
            string_val: "Normal"
            string_val: "Normal"
            string_val: "Normal"
            string_val: "Partial"
            string_val: "Normal"
            string_val: "Normal"
            string_val: "Normal"
            string_val: "Normal"
            string_val: "Normal"
            string_val: "Normal"
            string_val: "Partial"
            string_val: "Partial"
            string_val: "Normal"
            string_val: "Normal"
            string_val: "Normal"
            string_val: "Normal"
            string_val: "Abnorml"
            string_val: "Partial"
            string_val: "Normal"
            string_val: "Normal"
            string_val: "Normal"
            string_val: "Normal"
            string_val: "Normal"
            string_val: "Normal"
            string_val: "Normal"
            string_val: "Normal"
            string_val: "Normal"
            string_val: "Normal"
            string_val: "Normal"
            string_val: "Normal"
            string_val: "Normal"
            string_val: "Partial"
            string_val: "Normal"
            string_val: "Normal"
            string_val: "Normal"
            string_val: "Abnorml"
            string_val: "Normal"
            string_val: "Normal"
            string_val: "Normal"
            string_val: "Normal"
            string_val: "Normal"
            string_val: "Normal"
            string_val: "Normal"
            string_val: "Normal"
            string_val: "Normal"
            string_val: "Alloca"
            string_val: "Normal"
            string_val: "Abnorml"
            string_val: "Normal"
            string_val: "Normal"
            string_val: "Partial"
            string_val: "Normal"
            string_val: "Partial"
            string_val: "Normal"
            string_val: "Normal"
            string_val: "Abnorml"
            string_val: "Normal"
            string_val: "Partial"
            string_val: "Normal"
            string_val: "Partial"
            string_val: "Normal"
            string_val: "Abnorml"
            string_val: "Normal"
            string_val: "Abnorml"
            string_val: "Normal"
            string_val: "Family"
            string_val: "Normal"
            string_val: "Partial"
            string_val: "Normal"
            string_val: "Normal"
            string_val: "Normal"
            string_val: "Normal"
            string_val: "Normal"
            string_val: "Normal"
            string_val: "Normal"
            string_val: "Normal"
            string_val: "Normal"
            string_val: "Alloca"
            string_val: "Partial"
            string_val: "Partial"
            string_val: "Normal"
            string_val: "Normal"
            string_val: "Normal"
            string_val: "Normal"
            string_val: "Normal"
            string_val: "Normal"
            string_val: "Normal"
            string_val: "Normal"
            string_val: "Normal"
            string_val: "Normal"
            string_val: "Normal"
            string_val: "Normal"
            string_val: "Normal"
            string_val: "Normal"
            string_val: "Normal"
            string_val: "Normal"
            string_val: "Normal"
            string_val: "Normal"
            string_val: "Normal"
            string_val: "Normal"
            string_val: "Normal"
            string_val: "Normal"
            string_val: "Normal"
            string_val: "Normal"
            string_val: "Normal"
            string_val: "Normal"
            string_val: "Normal"
            string_val: "Partial"
            string_val: "Normal"
            string_val: "Family"
            string_val: "Normal"
            string_val: "Normal"
            string_val: "Abnorml"
            string_val: "Normal"
            string_val: "Normal"
            string_val: "Normal"
            string_val: "Normal"
            string_val: "Normal"
            string_val: "Normal"
            string_val: "Normal"
            string_val: "Normal"
            string_val: "Normal"
            string_val: "Normal"
            string_val: "Normal"
            string_val: "Normal"
            string_val: "Normal"
            string_val: "Normal"
            string_val: "Normal"
            string_val: "Normal"
            string_val: "Normal"
            string_val: "Normal"
            string_val: "Normal"
            string_val: "Normal"
            string_val: "Normal"
            string_val: "Normal"
            string_val: "Normal"
            string_val: "Normal"
            string_val: "Partial"
            string_val: "Normal"
            string_val: "Normal"
            string_val: "Normal"
            string_val: "Normal"
            string_val: "Normal"
            string_val: "Normal"
            string_val: "Normal"
            string_val: "Partial"
            string_val: "Partial"
            string_val: "Normal"
            string_val: "Normal"
            string_val: "Partial"
            string_val: "Normal"
            string_val: "Normal"
            string_val: "Normal"
            string_val: "Partial"
            string_val: "Normal"
            string_val: "Normal"
            string_val: "Normal"
            string_val: "Normal"
            string_val: "Normal"
            string_val: "Normal"
            string_val: "Normal"
            string_val: "Normal"
            string_val: "Family"
            string_val: "Normal"
            string_val: "Abnorml"
            string_val: "Normal"
            string_val: "Normal"
            string_val: "Normal"
            string_val: "Normal"
            string_val: "Normal"
            string_val: "Normal"
            string_val: "Normal"
            string_val: "Normal"
            string_val: "Partial"
            string_val: "Partial"
            string_val: "Normal"
            string_val: "Partial"
            string_val: "Normal"
            string_val: "Normal"
            string_val: "Partial"
            string_val: "Normal"
            string_val: "Normal"
            string_val: "Normal"
            string_val: "Normal"
            string_val: "Normal"
            string_val: "Normal"
            string_val: "Normal"
            string_val: "Normal"
            string_val: "Normal"
            string_val: "Normal"
            string_val: "Normal"
            string_val: "Normal"
            string_val: "Normal"
            string_val: "Normal"
            string_val: "Normal"
            string_val: "Normal"
            string_val: "Normal"
            string_val: "Abnorml"
            string_val: "Normal"
            string_val: "Normal"
            string_val: "Normal"
            string_val: "Normal"
            string_val: "Normal"
            string_val: "Normal"
            string_val: "Normal"
            string_val: "Normal"
            string_val: "Normal"
            string_val: "Normal"
            string_val: "Normal"
            string_val: "Normal"
            string_val: "Normal"
            string_val: "Partial"
            string_val: "Normal"
            string_val: "Normal"
            string_val: "Normal"
            string_val: "Normal"
            string_val: "Normal"
            string_val: "Normal"
            string_val: "Normal"
            string_val: "Normal"
            string_val: "Normal"
            string_val: "Normal"
            string_val: "Normal"
            string_val: "Normal"
            string_val: "Normal"
            string_val: "Normal"
            string_val: "Normal"
            string_val: "Partial"
            string_val: "Abnorml"
            string_val: "Normal"
            string_val: "Normal"
            string_val: "Normal"
            string_val: "Normal"
            string_val: "Normal"
            string_val: "Normal"
            string_val: "Abnorml"
            string_val: "Normal"
            string_val: "Normal"
            string_val: "Partial"
            string_val: "Normal"
            string_val: "Normal"
            string_val: "Partial"
            string_val: "Normal"
            string_val: "Normal"
            string_val: "Partial"
            string_val: "Normal"
            string_val: "Partial"
            string_val: "Normal"
            string_val: "Normal"
            string_val: "Normal"
            string_val: "Partial"
            string_val: "Normal"
            string_val: "Normal"
            string_val: "Normal"
            string_val: "Normal"
            string_val: "Abnorml"
            string_val: "Normal"
            string_val: "Normal"
            string_val: "Normal"
            string_val: "Normal"
            string_val: "Normal"
            string_val: "Normal"
            string_val: "Normal"
            string_val: "Partial"
            string_val: "Normal"
            string_val: "Normal"
            string_val: "Normal"
            string_val: "Normal"
            string_val: "Normal"
            string_val: "Normal"
            string_val: "Family"
            string_val: "Normal"
            string_val: "Normal"
            string_val: "Normal"
            string_val: "Normal"
            string_val: "Normal"
            string_val: "Normal"
            string_val: "Normal"
            string_val: "Normal"
            string_val: "Normal"
            string_val: "Alloca"
            string_val: "Normal"
            string_val: "Normal"
            string_val: "Normal"
            string_val: "Partial"
            string_val: "Normal"
            string_val: "Normal"
            string_val: "Normal"
            string_val: "Partial"
            string_val: "Normal"
            string_val: "Normal"
            string_val: "Normal"
            string_val: "Normal"
            string_val: "Normal"
            string_val: "Normal"
            string_val: "Normal"
            string_val: "Normal"
            string_val: "Normal"
            string_val: "Normal"
            string_val: "Normal"
            string_val: "Normal"
            string_val: "Normal"
            string_val: "Normal"
            string_val: "Normal"
            string_val: "Normal"
            string_val: "Normal"
            string_val: "Normal"
            string_val: "Normal"
            string_val: "Normal"
            string_val: "Normal"
            string_val: "Normal"
            string_val: "Partial"
            string_val: "Abnorml"
            string_val: "Abnorml"
            string_val: "Normal"
            string_val: "Abnorml"
            string_val: "Normal"
            string_val: "Normal"
            string_val: "Normal"
            string_val: "Normal"
            string_val: "Normal"
            string_val: "Normal"
            string_val: "Partial"
            string_val: "Normal"
            string_val: "Normal"
            string_val: "Normal"
            string_val: "Normal"
            string_val: "Normal"
            string_val: "Normal"
            string_val: "Partial"
            string_val: "Normal"
            string_val: "Normal"
            string_val: "Partial"
            string_val: "Normal"
            string_val: "Normal"
            string_val: "Normal"
            string_val: "Normal"
            string_val: "Partial"
            string_val: "Normal"
            string_val: "Normal"
            string_val: "Normal"
            string_val: "Normal"
            string_val: "Normal"
            string_val: "Normal"
            string_val: "Normal"
            string_val: "Abnorml"
            string_val: "Normal"
            string_val: "Normal"
            string_val: "Abnorml"
            string_val: "Normal"
            string_val: "Normal"
            string_val: "Normal"
            string_val: "Normal"
            string_val: "Normal"
            string_val: "Normal"
            string_val: "Normal"
            string_val: "Normal"
            string_val: "Normal"
            string_val: "Normal"
            string_val: "Normal"
            string_val: "Normal"
            string_val: "Normal"
            string_val: "Normal"
            string_val: "Normal"
            string_val: "Normal"
            string_val: "Normal"
            string_val: "Abnorml"
            string_val: "Abnorml"
            string_val: "Normal"
            string_val: "Normal"
            string_val: "Normal"
            string_val: "Normal"
            string_val: "Normal"
            string_val: "Partial"
            string_val: "Normal"
            string_val: "Normal"
            string_val: "Partial"
            string_val: "Normal"
            string_val: "Partial"
            string_val: "Normal"
            string_val: "Normal"
            string_val: "Alloca"
            string_val: "Normal"
            string_val: "Normal"
            string_val: "Normal"
            string_val: "Partial"
            string_val: "Partial"
            string_val: "Normal"
            string_val: "Normal"
            string_val: "Normal"
            string_val: "Normal"
            string_val: "Normal"
            string_val: "Abnorml"
            string_val: "Normal"
            string_val: "Normal"
            string_val: "Normal"
            string_val: "Normal"
            string_val: "Normal"
            string_val: "Partial"
            string_val: "Abnorml"
            string_val: "Normal"
            string_val: "Normal"
            string_val: "Normal"
            string_val: "Normal"
            string_val: "Normal"
            string_val: "Normal"
            string_val: "Normal"
            string_val: "Normal"
            string_val: "Normal"
            string_val: "Normal"
            string_val: "Normal"
            string_val: "Normal"
            string_val: "Normal"
            string_val: "Normal"
            string_val: "Normal"
            string_val: "Normal"
            string_val: "Normal"
            string_val: "Normal"
            string_val: "Normal"
            string_val: "Normal"
            string_val: "Normal"
            string_val: "Normal"
            string_val: "Normal"
            string_val: "Partial"
            string_val: "Normal"
            string_val: "Normal"
            string_val: "Normal"
            string_val: "Normal"
            string_val: "Normal"
            string_val: "Normal"
            string_val: "Normal"
            string_val: "Normal"
            string_val: "Normal"
            string_val: "Normal"
            string_val: "Abnorml"
            string_val: "Normal"
            string_val: "Family"
            string_val: "Normal"
            string_val: "Normal"
            string_val: "Normal"
            string_val: "Partial"
            string_val: "Normal"
            string_val: "Normal"
            string_val: "Normal"
            string_val: "Normal"
            string_val: "Normal"
            string_val: "Normal"
            string_val: "Normal"
            string_val: "Normal"
            string_val: "Normal"
            string_val: "Normal"
            string_val: "Normal"
            string_val: "Normal"
            string_val: "Abnorml"
            string_val: "Normal"
            string_val: "Normal"
            string_val: "Normal"
            string_val: "Normal"
            string_val: "AdjLand"
            string_val: "Normal"
            string_val: "Normal"
            string_val: "Normal"
            string_val: "Normal"
            string_val: "Normal"
            string_val: "Normal"
            string_val: "Normal"
            string_val: "Normal"
            string_val: "Normal"
            string_val: "Normal"
            string_val: "Normal"
            string_val: "Abnorml"
            string_val: "Normal"
            string_val: "Normal"
            string_val: "Abnorml"
            string_val: "Normal"
            string_val: "Normal"
            string_val: "Normal"
            string_val: "Partial"
            string_val: "Partial"
            string_val: "Normal"
            string_val: "Normal"
            string_val: "Normal"
            string_val: "Abnorml"
            string_val: "Normal"
            string_val: "Normal"
            string_val: "Normal"
            string_val: "Partial"
            string_val: "Normal"
            string_val: "Normal"
            string_val: "Partial"
            string_val: "Normal"
            string_val: "Normal"
            string_val: "Normal"
            string_val: "Normal"
            string_val: "Normal"
            string_val: "Normal"
            string_val: "Normal"
            string_val: "Normal"
            string_val: "Normal"
            string_val: "Normal"
            string_val: "Normal"
            string_val: "Normal"
            string_val: "Normal"
            string_val: "Abnorml"
            string_val: "Abnorml"
            string_val: "Normal"
            string_val: "Normal"
            string_val: "Normal"
            string_val: "Normal"
            string_val: "Partial"
            string_val: "Normal"
            string_val: "Partial"
            string_val: "Partial"
            string_val: "Normal"
            string_val: "Normal"
            string_val: "Normal"
            string_val: "Partial"
            string_val: "Partial"
            string_val: "Normal"
            string_val: "Normal"
            string_val: "Normal"
            string_val: "Normal"
            string_val: "Normal"
            string_val: "Normal"
            string_val: "Normal"
            string_val: "Normal"
            string_val: "Normal"
            string_val: "Partial"
            string_val: "Normal"
            string_val: "Normal"
            string_val: "Normal"
            string_val: "Normal"
            string_val: "Normal"
            string_val: "Normal"
            string_val: "Normal"
            string_val: "Normal"
            string_val: "Abnorml"
            string_val: "Normal"
            string_val: "Normal"
            string_val: "Normal"
            string_val: "Normal"
            string_val: "Normal"
            string_val: "Abnorml"
            string_val: "Normal"
            string_val: "Normal"
            string_val: "Normal"
            string_val: "Normal"
            string_val: "Normal"
            string_val: "Normal"
            string_val: "Normal"
            string_val: "Normal"
            string_val: "Normal"
            string_val: "Normal"
            string_val: "Normal"
            string_val: "Normal"
            string_val: "Abnorml"
            string_val: "Normal"
            string_val: "Normal"
            string_val: "Normal"
            string_val: "Normal"
            string_val: "Partial"
            string_val: "Normal"
            string_val: "Normal"
            string_val: "Normal"
            string_val: "Normal"
            string_val: "Normal"
            string_val: "Normal"
            string_val: "Partial"
            string_val: "Normal"
            string_val: "Normal"
            string_val: "Normal"
            string_val: "Normal"
            string_val: "Normal"
            string_val: "Normal"
            string_val: "Normal"
            string_val: "Normal"
            string_val: "Partial"
            string_val: "Normal"
            string_val: "Normal"
            string_val: "Abnorml"
            string_val: "Normal"
            string_val: "Normal"
            string_val: "Normal"
            string_val: "Normal"
            string_val: "Normal"
            string_val: "Normal"
            string_val: "Partial"
            string_val: "Normal"
            string_val: "Normal"
            string_val: "Normal"
            string_val: "Normal"
            string_val: "Normal"
            string_val: "Normal"
            string_val: "Normal"
            string_val: "Normal"
            string_val: "Abnorml"
            string_val: "Partial"
            string_val: "Normal"
            string_val: "Normal"
            string_val: "Normal"
            string_val: "Normal"
            string_val: "Normal"
            string_val: "Normal"
            string_val: "Abnorml"
            string_val: "Abnorml"
            string_val: "Normal"
            string_val: "Partial"
            string_val: "Normal"
            string_val: "Normal"
            string_val: "Normal"
            string_val: "Normal"
            string_val: "Normal"
            string_val: "Normal"
            string_val: "Normal"
            string_val: "Normal"
            string_val: "Normal"
            string_val: "Partial"
            string_val: "Normal"
            string_val: "Normal"
            string_val: "Normal"
            string_val: "Alloca"
            string_val: "Normal"
            string_val: "Normal"
            string_val: "Normal"
            string_val: "AdjLand"
            string_val: "Normal"
            string_val: "Normal"
            string_val: "Normal"
            string_val: "Normal"
            string_val: "Normal"
            string_val: "Normal"
            string_val: "Normal"
            string_val: "Abnorml"
            string_val: "Normal"
            string_val: "Abnorml"
            string_val: "Normal"
            string_val: "Normal"
            string_val: "Normal"
            string_val: "Normal"
            string_val: "Partial"
            string_val: "Normal"
            string_val: "Normal"
            string_val: "Partial"
            string_val: "Normal"
            string_val: "Normal"
            string_val: "Normal"
            string_val: "Partial"
            string_val: "Normal"
            string_val: "Normal"
            string_val: "Abnorml"
            string_val: "Normal"
            string_val: "Normal"
            string_val: "Normal"
            string_val: "Normal"
            string_val: "Normal"
            string_val: "Normal"
            string_val: "Partial"
            string_val: "Normal"
            string_val: "Abnorml"
            string_val: "Normal"
            string_val: "Normal"
            string_val: "Normal"
            string_val: "Normal"
            string_val: "Normal"
            string_val: "Normal"
            string_val: "Normal"
            string_val: "Partial"
            string_val: "Normal"
            string_val: "Family"
            string_val: "Normal"
            string_val: "Normal"
            string_val: "Normal"
            string_val: "Normal"
            string_val: "Normal"
            string_val: "Normal"
            string_val: "Normal"
            string_val: "Abnorml"
            string_val: "Normal"
            string_val: "Normal"
            string_val: "Normal"
            string_val: "Normal"
            string_val: "Normal"
            string_val: "Normal"
            string_val: "Abnorml"
            string_val: "Normal"
            string_val: "Normal"
            string_val: "Normal"
            string_val: "Normal"
            string_val: "Normal"
            string_val: "Normal"
            string_val: "Normal"
            string_val: "Alloca"
            string_val: "Normal"
            string_val: "Normal"
            string_val: "Normal"
            string_val: "Normal"
            string_val: "Normal"
            string_val: "Normal"
            string_val: "Normal"
            string_val: "Normal"
            string_val: "Normal"
            string_val: "Normal"
            string_val: "Abnorml"
            string_val: "Partial"
            string_val: "Partial"
            string_val: "Normal"
            string_val: "Abnorml"
            string_val: "Normal"
            string_val: "Normal"
            string_val: "Normal"
            string_val: "Normal"
            string_val: "Normal"
            string_val: "Family"
            string_val: "Normal"
            string_val: "Normal"
            string_val: "Normal"
            string_val: "Normal"
            string_val: "Normal"
            string_val: "Normal"
            string_val: "Abnorml"
            string_val: "Family"
            string_val: "Family"
            string_val: "Normal"
            string_val: "Normal"
            string_val: "Normal"
            string_val: "Abnorml"
            string_val: "Normal"
            string_val: "Normal"
            string_val: "Alloca"
            string_val: "Normal"
            string_val: "Family"
            string_val: "Abnorml"
            string_val: "Normal"
            string_val: "Normal"
            string_val: "Partial"
            string_val: "Normal"
            string_val: "Normal"
            string_val: "Normal"
            string_val: "Normal"
            string_val: "Normal"
            string_val: "Abnorml"
            string_val: "Normal"
            string_val: "Abnorml"
            string_val: "Normal"
            string_val: "Abnorml"
            string_val: "Normal"
            string_val: "Normal"
            string_val: "Normal"
            string_val: "Normal"
            string_val: "Normal"
            string_val: "Normal"
            string_val: "Normal"
            string_val: "Normal"
            string_val: "Normal"
            string_val: "Normal"
            string_val: "Abnorml"
            string_val: "Partial"
            string_val: "Normal"
            string_val: "Normal"
            string_val: "Normal"
            string_val: "Normal"
            string_val: "Normal"
            string_val: "Normal"
            string_val: "Normal"
            string_val: "Normal"
            string_val: "Normal"
            string_val: "Normal"
            string_val: "Partial"
            string_val: "Normal"
            string_val: "Normal"
            string_val: "Normal"
            string_val: "Normal"
            string_val: "Alloca"
            string_val: "Abnorml"
            string_val: "Normal"
            string_val: "Normal"
            string_val: "Partial"
            string_val: "Abnorml"
            string_val: "Family"
            string_val: "Normal"
            string_val: "Normal"
            string_val: "Normal"
            string_val: "Normal"
            string_val: "Normal"
            string_val: "Normal"
            string_val: "Normal"
            string_val: "Normal"
            string_val: "Family"
            string_val: "Normal"
            string_val: "Partial"
            string_val: "Normal"
            string_val: "Partial"
            string_val: "Normal"
            string_val: "Normal"
            string_val: "Abnorml"
            string_val: "Normal"
            string_val: "Partial"
            string_val: "Normal"
            string_val: "Normal"
            string_val: "Abnorml"
            string_val: "Normal"
            string_val: "Normal"
            string_val: "Normal"
            string_val: "Normal"
            string_val: "Normal"
            string_val: "Normal"
            string_val: "Normal"
            string_val: "Normal"
            string_val: "Normal"
            string_val: "Normal"
            string_val: "Normal"
            string_val: "Normal"
            string_val: "Normal"
          }
        }
      }
    }
    node_def {
      name: "TensorSliceDataset/tensors/component_8"
      op: "Const"
      device: "/device:CPU:0"
      attr {
        key: "dtype"
        value {
          type: DT_INT64
        }
      }
      attr {
        key: "value"
        value {
          tensor {
            dtype: DT_INT64
            tensor_shape {
              dim {
                size: 1200
              }
            }
            tensor_content: "…"
          }
        }
      }
    }
    node_def {
      name: "TensorSliceDataset/tensors/component_9"
      op: "Const"
      device: "/device:CPU:0"
      attr {
        key: "dtype"
        value {
          type: DT_INT64
        }
      }
      attr {
        key: "value"
        value {
          tensor {
            dtype: DT_INT64
            tensor_shape {
              dim {
                size: 1200
              }
            }
            tensor_content: "…"
          }
        }
      }
    }
    node_def {
      name: "TensorSliceDataset/tensors/component_10"
      op: "Const"
      device: "/device:CPU:0"
      attr {
        key: "dtype"
        value {
          type: DT_DOUBLE
        }
      }
      attr {
        key: "value"
        value {
          tensor {
            dtype: DT_DOUBLE
            tensor_shape {
              dim {
                size: 1200
              }
              dim {
                size: 1
              }
            }
            tensor_content: "…"
          }
        }
      }
    }
    node_def {
      name: "TensorSliceDataset"
      op: "TensorSliceDataset"
      input: "TensorSliceDataset/tensors/component_0:output:0"
      input: "TensorSliceDataset/tensors/component_1:output:0"
      input: "TensorSliceDataset/tensors/component_2:output:0"
      input: "TensorSliceDataset/tensors/component_3:output:0"
      input: "TensorSliceDataset/tensors/component_4:output:0"
      input: "TensorSliceDataset/tensors/component_5:output:0"
      input: "TensorSliceDataset/tensors/component_6:output:0"
      input: "TensorSliceDataset/tensors/component_7:output:0"
      input: "TensorSliceDataset/tensors/component_8:output:0"
      input: "TensorSliceDataset/tensors/component_9:output:0"
      input: "TensorSliceDataset/tensors/component_10:output:0"
      device: "/device:CPU:0"
      attr {
        key: "Toutput_types"
        value {
          list {
            type: DT_INT64
            type: DT_STRING
            type: DT_STRING
            type: DT_DOUBLE
            type: DT_STRING
            type: DT_INT64
            type: DT_INT64
            type: DT_STRING
            type: DT_INT64
            type: DT_INT64
            type: DT_DOUBLE
          }
        }
      }
      attr {
        key: "output_shapes"
        value {
          list {
            shape {
            }
            shape {
            }
            shape {
            }
            shape {
            }
            shape {
            }
            shape {
            }
            shape {
            }
            shape {
            }
            shape {
            }
            shape {
            }
            shape {
              dim {
                size: 1
              }
            }
          }
        }
      }
    }
    node_def {
      name: "BatchDatasetV2/batch_size"
      op: "Const"
      device: "/device:CPU:0"
      attr {
        key: "dtype"
        value {
          type: DT_INT64
        }
      }
      attr {
        key: "value"
        value {
          tensor {
            dtype: DT_INT64
            tensor_shape {
            }
            int64_val: 50
          }
        }
      }
    }
    node_def {
      name: "BatchDatasetV2/drop_remainder"
      op: "Const"
      device: "/device:CPU:0"
      attr {
        key: "dtype"
        value {
          type: DT_BOOL
        }
      }
      attr {
        key: "value"
        value {
          tensor {
            dtype: DT_BOOL
            tensor_shape {
            }
            bool_val: false
          }
        }
      }
    }
    node_def {
      name: "BatchDatasetV2"
      op: "BatchDatasetV2"
      input: "TensorSliceDataset:handle:0"
      input: "BatchDatasetV2/batch_size:output:0"
      input: "BatchDatasetV2/drop_remainder:output:0"
      device: "/device:CPU:0"
      attr {
        key: "output_shapes"
        value {
          list {
            shape {
              dim {
                size: -1
              }
            }
            shape {
              dim {
                size: -1
              }
            }
            shape {
              dim {
                size: -1
              }
            }
            shape {
              dim {
                size: -1
              }
            }
            shape {
              dim {
                size: -1
              }
            }
            shape {
              dim {
                size: -1
              }
            }
            shape {
              dim {
                size: -1
              }
            }
            shape {
              dim {
                size: -1
              }
            }
            shape {
              dim {
                size: -1
              }
            }
            shape {
              dim {
                size: -1
              }
            }
            shape {
              dim {
                size: -1
              }
              dim {
                size: 1
              }
            }
          }
        }
      }
      attr {
        key: "output_types"
        value {
          list {
            type: DT_INT64
            type: DT_STRING
            type: DT_STRING
            type: DT_DOUBLE
            type: DT_STRING
            type: DT_INT64
            type: DT_INT64
            type: DT_STRING
            type: DT_INT64
            type: DT_INT64
            type: DT_DOUBLE
          }
        }
      }
    }
    node_def {
      name: "RepeatDataset/count"
      op: "Const"
      device: "/device:CPU:0"
      attr {
        key: "dtype"
        value {
          type: DT_INT64
        }
      }
      attr {
        key: "value"
        value {
          tensor {
            dtype: DT_INT64
            tensor_shape {
            }
            int64_val: -1
          }
        }
      }
    }
    node_def {
      name: "RepeatDataset"
      op: "RepeatDataset"
      input: "BatchDatasetV2:handle:0"
      input: "RepeatDataset/count:output:0"
      device: "/device:CPU:0"
      attr {
        key: "output_shapes"
        value {
          list {
            shape {
              dim {
                size: -1
              }
            }
            shape {
              dim {
                size: -1
              }
            }
            shape {
              dim {
                size: -1
              }
            }
            shape {
              dim {
                size: -1
              }
            }
            shape {
              dim {
                size: -1
              }
            }
            shape {
              dim {
                size: -1
              }
            }
            shape {
              dim {
                size: -1
              }
            }
            shape {
              dim {
                size: -1
              }
            }
            shape {
              dim {
                size: -1
              }
            }
            shape {
              dim {
                size: -1
              }
            }
            shape {
              dim {
                size: -1
              }
              dim {
                size: 1
              }
            }
          }
        }
      }
      attr {
        key: "output_types"
        value {
          list {
            type: DT_INT64
            type: DT_STRING
            type: DT_STRING
            type: DT_DOUBLE
            type: DT_STRING
            type: DT_INT64
            type: DT_INT64
            type: DT_STRING
            type: DT_INT64
            type: DT_INT64
            type: DT_DOUBLE
          }
        }
      }
    }
    ret {
      key: "repeatdataset"
      value: "RepeatDataset:handle:0"
    }
  }
}
versions {
  producer: 27
  min_consumer: 12
}
